<?xml version="1.0"?>
<net name="torch_jit" version="11">
	<layers>
		<layer id="0" name="x.1" type="Parameter" version="opset1">
			<data shape="1,3,448,448" element_type="f32" />
			<output>
				<port id="0" precision="FP32" names="x.1">
					<dim>1</dim>
					<dim>3</dim>
					<dim>448</dim>
					<dim>448</dim>
				</port>
			</output>
		</layer>
		<layer id="1" name="Constant_17821" type="Const" version="opset1">
			<data element_type="f32" shape="1, 1, 1, 1" offset="0" size="4" />
			<output>
				<port id="0" precision="FP32">
					<dim>1</dim>
					<dim>1</dim>
					<dim>1</dim>
					<dim>1</dim>
				</port>
			</output>
		</layer>
		<layer id="2" name="Constant_17822" type="Const" version="opset1">
			<data element_type="f32" shape="1, 1, 1, 1" offset="4" size="4" />
			<output>
				<port id="0" precision="FP32">
					<dim>1</dim>
					<dim>1</dim>
					<dim>1</dim>
					<dim>1</dim>
				</port>
			</output>
		</layer>
		<layer id="3" name="Constant_17823" type="Const" version="opset1">
			<data element_type="f32" shape="1, 1, 1, 1" offset="0" size="4" />
			<output>
				<port id="0" precision="FP32">
					<dim>1</dim>
					<dim>1</dim>
					<dim>1</dim>
					<dim>1</dim>
				</port>
			</output>
		</layer>
		<layer id="4" name="Constant_17824" type="Const" version="opset1">
			<data element_type="f32" shape="1, 1, 1, 1" offset="4" size="4" />
			<output>
				<port id="0" precision="FP32">
					<dim>1</dim>
					<dim>1</dim>
					<dim>1</dim>
					<dim>1</dim>
				</port>
			</output>
		</layer>
		<layer id="5" name="//nncf_model_input_0|OUTPUT/FakeQuantize" type="FakeQuantize" version="opset1">
			<data levels="256" auto_broadcast="numpy" />
			<input>
				<port id="0" precision="FP32">
					<dim>1</dim>
					<dim>3</dim>
					<dim>448</dim>
					<dim>448</dim>
				</port>
				<port id="1" precision="FP32">
					<dim>1</dim>
					<dim>1</dim>
					<dim>1</dim>
					<dim>1</dim>
				</port>
				<port id="2" precision="FP32">
					<dim>1</dim>
					<dim>1</dim>
					<dim>1</dim>
					<dim>1</dim>
				</port>
				<port id="3" precision="FP32">
					<dim>1</dim>
					<dim>1</dim>
					<dim>1</dim>
					<dim>1</dim>
				</port>
				<port id="4" precision="FP32">
					<dim>1</dim>
					<dim>1</dim>
					<dim>1</dim>
					<dim>1</dim>
				</port>
			</input>
			<output>
				<port id="5" precision="FP32" names="//nncf_model_input_0|OUTPUT/FakeQuantize_output_0">
					<dim>1</dim>
					<dim>3</dim>
					<dim>448</dim>
					<dim>448</dim>
				</port>
			</output>
		</layer>
		<layer id="6" name="Constant_19941" type="Const" version="opset1">
			<data element_type="i8" shape="32, 3, 3, 3" offset="8" size="864" />
			<output>
				<port id="0" precision="I8">
					<dim>32</dim>
					<dim>3</dim>
					<dim>3</dim>
					<dim>3</dim>
				</port>
			</output>
		</layer>
		<layer id="7" name="Convert_19942" type="Convert" version="opset1">
			<data destination_type="f32" />
			<input>
				<port id="0" precision="I8">
					<dim>32</dim>
					<dim>3</dim>
					<dim>3</dim>
					<dim>3</dim>
				</port>
			</input>
			<output>
				<port id="1" precision="FP32">
					<dim>32</dim>
					<dim>3</dim>
					<dim>3</dim>
					<dim>3</dim>
				</port>
			</output>
		</layer>
		<layer id="8" name="Constant_19943" type="Const" version="opset1">
			<data element_type="f32" shape="32, 1, 1, 1" offset="872" size="128" />
			<output>
				<port id="0" precision="FP32">
					<dim>32</dim>
					<dim>1</dim>
					<dim>1</dim>
					<dim>1</dim>
				</port>
			</output>
		</layer>
		<layer id="9" name="Multiply_16772" type="Multiply" version="opset1">
			<data auto_broadcast="numpy" />
			<input>
				<port id="0" precision="FP32">
					<dim>32</dim>
					<dim>3</dim>
					<dim>3</dim>
					<dim>3</dim>
				</port>
				<port id="1" precision="FP32">
					<dim>32</dim>
					<dim>1</dim>
					<dim>1</dim>
					<dim>1</dim>
				</port>
			</input>
			<output>
				<port id="2" precision="FP32">
					<dim>32</dim>
					<dim>3</dim>
					<dim>3</dim>
					<dim>3</dim>
				</port>
			</output>
		</layer>
		<layer id="10" name="Multiply_16147" type="Convolution" version="opset1">
			<data strides="2, 2" dilations="1, 1" pads_begin="1, 1" pads_end="1, 1" auto_pad="explicit" />
			<input>
				<port id="0" precision="FP32">
					<dim>1</dim>
					<dim>3</dim>
					<dim>448</dim>
					<dim>448</dim>
				</port>
				<port id="1" precision="FP32">
					<dim>32</dim>
					<dim>3</dim>
					<dim>3</dim>
					<dim>3</dim>
				</port>
			</input>
			<output>
				<port id="2" precision="FP32">
					<dim>1</dim>
					<dim>32</dim>
					<dim>224</dim>
					<dim>224</dim>
				</port>
			</output>
		</layer>
		<layer id="11" name="Constant_16152" type="Const" version="opset1">
			<data element_type="f32" shape="1, 32, 1, 1" offset="1000" size="128" />
			<output>
				<port id="0" precision="FP32">
					<dim>1</dim>
					<dim>32</dim>
					<dim>1</dim>
					<dim>1</dim>
				</port>
			</output>
		</layer>
		<layer id="12" name="/encoder/stem/bn/BatchNormalization" type="Add" version="opset1">
			<data auto_broadcast="numpy" />
			<input>
				<port id="0" precision="FP32">
					<dim>1</dim>
					<dim>32</dim>
					<dim>224</dim>
					<dim>224</dim>
				</port>
				<port id="1" precision="FP32">
					<dim>1</dim>
					<dim>32</dim>
					<dim>1</dim>
					<dim>1</dim>
				</port>
			</input>
			<output>
				<port id="2" precision="FP32" names="/encoder/stem/bn/BatchNormalization_output_0">
					<dim>1</dim>
					<dim>32</dim>
					<dim>224</dim>
					<dim>224</dim>
				</port>
			</output>
		</layer>
		<layer id="13" name="Constant_17825" type="Const" version="opset1">
			<data element_type="f32" shape="1, 1, 1, 1" offset="0" size="4" />
			<output>
				<port id="0" precision="FP32">
					<dim>1</dim>
					<dim>1</dim>
					<dim>1</dim>
					<dim>1</dim>
				</port>
			</output>
		</layer>
		<layer id="14" name="Constant_17826" type="Const" version="opset1">
			<data element_type="f32" shape="1, 1, 1, 1" offset="1128" size="4" />
			<output>
				<port id="0" precision="FP32">
					<dim>1</dim>
					<dim>1</dim>
					<dim>1</dim>
					<dim>1</dim>
				</port>
			</output>
		</layer>
		<layer id="15" name="Constant_17827" type="Const" version="opset1">
			<data element_type="f32" shape="1, 1, 1, 1" offset="0" size="4" />
			<output>
				<port id="0" precision="FP32">
					<dim>1</dim>
					<dim>1</dim>
					<dim>1</dim>
					<dim>1</dim>
				</port>
			</output>
		</layer>
		<layer id="16" name="Constant_17828" type="Const" version="opset1">
			<data element_type="f32" shape="1, 1, 1, 1" offset="1128" size="4" />
			<output>
				<port id="0" precision="FP32">
					<dim>1</dim>
					<dim>1</dim>
					<dim>1</dim>
					<dim>1</dim>
				</port>
			</output>
		</layer>
		<layer id="17" name="/encoder/stem/bn/act/DeepLabV3Plus/RegNetEncoder[encoder]/ConvNormAct[stem]/BatchNormAct2d[bn]/ReLU[act]/relu__0|OUTPUT/FakeQuantize" type="FakeQuantize" version="opset1">
			<data levels="256" auto_broadcast="numpy" />
			<input>
				<port id="0" precision="FP32">
					<dim>1</dim>
					<dim>32</dim>
					<dim>224</dim>
					<dim>224</dim>
				</port>
				<port id="1" precision="FP32">
					<dim>1</dim>
					<dim>1</dim>
					<dim>1</dim>
					<dim>1</dim>
				</port>
				<port id="2" precision="FP32">
					<dim>1</dim>
					<dim>1</dim>
					<dim>1</dim>
					<dim>1</dim>
				</port>
				<port id="3" precision="FP32">
					<dim>1</dim>
					<dim>1</dim>
					<dim>1</dim>
					<dim>1</dim>
				</port>
				<port id="4" precision="FP32">
					<dim>1</dim>
					<dim>1</dim>
					<dim>1</dim>
					<dim>1</dim>
				</port>
			</input>
			<output>
				<port id="5" precision="FP32" names="/encoder/stem/bn/act/DeepLabV3Plus/RegNetEncoder[encoder]/ConvNormAct[stem]/BatchNormAct2d[bn]/ReLU[act]/relu__0|OUTPUT/FakeQuantize_output_0">
					<dim>1</dim>
					<dim>32</dim>
					<dim>224</dim>
					<dim>224</dim>
				</port>
			</output>
		</layer>
		<layer id="18" name="Constant_19945" type="Const" version="opset1">
			<data element_type="i8" shape="144, 32, 1, 1" offset="1132" size="4608" />
			<output>
				<port id="0" precision="I8">
					<dim>144</dim>
					<dim>32</dim>
					<dim>1</dim>
					<dim>1</dim>
				</port>
			</output>
		</layer>
		<layer id="19" name="Convert_19946" type="Convert" version="opset1">
			<data destination_type="f32" />
			<input>
				<port id="0" precision="I8">
					<dim>144</dim>
					<dim>32</dim>
					<dim>1</dim>
					<dim>1</dim>
				</port>
			</input>
			<output>
				<port id="1" precision="FP32">
					<dim>144</dim>
					<dim>32</dim>
					<dim>1</dim>
					<dim>1</dim>
				</port>
			</output>
		</layer>
		<layer id="20" name="Constant_19947" type="Const" version="opset1">
			<data element_type="f32" shape="144, 1, 1, 1" offset="5740" size="576" />
			<output>
				<port id="0" precision="FP32">
					<dim>144</dim>
					<dim>1</dim>
					<dim>1</dim>
					<dim>1</dim>
				</port>
			</output>
		</layer>
		<layer id="21" name="Multiply_16776" type="Multiply" version="opset1">
			<data auto_broadcast="numpy" />
			<input>
				<port id="0" precision="FP32">
					<dim>144</dim>
					<dim>32</dim>
					<dim>1</dim>
					<dim>1</dim>
				</port>
				<port id="1" precision="FP32">
					<dim>144</dim>
					<dim>1</dim>
					<dim>1</dim>
					<dim>1</dim>
				</port>
			</input>
			<output>
				<port id="2" precision="FP32">
					<dim>144</dim>
					<dim>32</dim>
					<dim>1</dim>
					<dim>1</dim>
				</port>
			</output>
		</layer>
		<layer id="22" name="Multiply_16154" type="Convolution" version="opset1">
			<data strides="1, 1" dilations="1, 1" pads_begin="0, 0" pads_end="0, 0" auto_pad="explicit" />
			<input>
				<port id="0" precision="FP32">
					<dim>1</dim>
					<dim>32</dim>
					<dim>224</dim>
					<dim>224</dim>
				</port>
				<port id="1" precision="FP32">
					<dim>144</dim>
					<dim>32</dim>
					<dim>1</dim>
					<dim>1</dim>
				</port>
			</input>
			<output>
				<port id="2" precision="FP32">
					<dim>1</dim>
					<dim>144</dim>
					<dim>224</dim>
					<dim>224</dim>
				</port>
			</output>
		</layer>
		<layer id="23" name="Constant_16159" type="Const" version="opset1">
			<data element_type="f32" shape="1, 144, 1, 1" offset="6316" size="576" />
			<output>
				<port id="0" precision="FP32">
					<dim>1</dim>
					<dim>144</dim>
					<dim>1</dim>
					<dim>1</dim>
				</port>
			</output>
		</layer>
		<layer id="24" name="/encoder/s1/b1/conv1/bn/BatchNormalization" type="Add" version="opset1">
			<data auto_broadcast="numpy" />
			<input>
				<port id="0" precision="FP32">
					<dim>1</dim>
					<dim>144</dim>
					<dim>224</dim>
					<dim>224</dim>
				</port>
				<port id="1" precision="FP32">
					<dim>1</dim>
					<dim>144</dim>
					<dim>1</dim>
					<dim>1</dim>
				</port>
			</input>
			<output>
				<port id="2" precision="FP32" names="/encoder/s1/b1/conv1/bn/BatchNormalization_output_0">
					<dim>1</dim>
					<dim>144</dim>
					<dim>224</dim>
					<dim>224</dim>
				</port>
			</output>
		</layer>
		<layer id="25" name="Constant_17829" type="Const" version="opset1">
			<data element_type="f32" shape="1, 1, 1, 1" offset="0" size="4" />
			<output>
				<port id="0" precision="FP32">
					<dim>1</dim>
					<dim>1</dim>
					<dim>1</dim>
					<dim>1</dim>
				</port>
			</output>
		</layer>
		<layer id="26" name="Constant_17830" type="Const" version="opset1">
			<data element_type="f32" shape="1, 1, 1, 1" offset="6892" size="4" />
			<output>
				<port id="0" precision="FP32">
					<dim>1</dim>
					<dim>1</dim>
					<dim>1</dim>
					<dim>1</dim>
				</port>
			</output>
		</layer>
		<layer id="27" name="Constant_17831" type="Const" version="opset1">
			<data element_type="f32" shape="1, 1, 1, 1" offset="0" size="4" />
			<output>
				<port id="0" precision="FP32">
					<dim>1</dim>
					<dim>1</dim>
					<dim>1</dim>
					<dim>1</dim>
				</port>
			</output>
		</layer>
		<layer id="28" name="Constant_17832" type="Const" version="opset1">
			<data element_type="f32" shape="1, 1, 1, 1" offset="6892" size="4" />
			<output>
				<port id="0" precision="FP32">
					<dim>1</dim>
					<dim>1</dim>
					<dim>1</dim>
					<dim>1</dim>
				</port>
			</output>
		</layer>
		<layer id="29" name="/encoder/s1/b1/conv1/bn/act/DeepLabV3Plus/RegNetEncoder[encoder]/RegStage[s1]/Bottleneck[b1]/ConvNormAct[conv1]/BatchNormAct2d[bn]/ReLU[act]/relu__0|OUTPUT/FakeQuantize" type="FakeQuantize" version="opset1">
			<data levels="256" auto_broadcast="numpy" />
			<input>
				<port id="0" precision="FP32">
					<dim>1</dim>
					<dim>144</dim>
					<dim>224</dim>
					<dim>224</dim>
				</port>
				<port id="1" precision="FP32">
					<dim>1</dim>
					<dim>1</dim>
					<dim>1</dim>
					<dim>1</dim>
				</port>
				<port id="2" precision="FP32">
					<dim>1</dim>
					<dim>1</dim>
					<dim>1</dim>
					<dim>1</dim>
				</port>
				<port id="3" precision="FP32">
					<dim>1</dim>
					<dim>1</dim>
					<dim>1</dim>
					<dim>1</dim>
				</port>
				<port id="4" precision="FP32">
					<dim>1</dim>
					<dim>1</dim>
					<dim>1</dim>
					<dim>1</dim>
				</port>
			</input>
			<output>
				<port id="5" precision="FP32" names="/encoder/s1/b1/conv1/bn/act/DeepLabV3Plus/RegNetEncoder[encoder]/RegStage[s1]/Bottleneck[b1]/ConvNormAct[conv1]/BatchNormAct2d[bn]/ReLU[act]/relu__0|OUTPUT/FakeQuantize_output_0">
					<dim>1</dim>
					<dim>144</dim>
					<dim>224</dim>
					<dim>224</dim>
				</port>
			</output>
		</layer>
		<layer id="30" name="Constant_19949" type="Const" version="opset1">
			<data element_type="i8" shape="144, 72, 3, 3" offset="6896" size="93312" />
			<output>
				<port id="0" precision="I8">
					<dim>144</dim>
					<dim>72</dim>
					<dim>3</dim>
					<dim>3</dim>
				</port>
			</output>
		</layer>
		<layer id="31" name="Convert_19950" type="Convert" version="opset1">
			<data destination_type="f32" />
			<input>
				<port id="0" precision="I8">
					<dim>144</dim>
					<dim>72</dim>
					<dim>3</dim>
					<dim>3</dim>
				</port>
			</input>
			<output>
				<port id="1" precision="FP32">
					<dim>144</dim>
					<dim>72</dim>
					<dim>3</dim>
					<dim>3</dim>
				</port>
			</output>
		</layer>
		<layer id="32" name="Constant_19951" type="Const" version="opset1">
			<data element_type="f32" shape="144, 1, 1, 1" offset="100208" size="576" />
			<output>
				<port id="0" precision="FP32">
					<dim>144</dim>
					<dim>1</dim>
					<dim>1</dim>
					<dim>1</dim>
				</port>
			</output>
		</layer>
		<layer id="33" name="/encoder/s1/b1/conv2/conv/pre_ops.0/op/FakeQuantize" type="Multiply" version="opset1">
			<data auto_broadcast="numpy" />
			<input>
				<port id="0" precision="FP32">
					<dim>144</dim>
					<dim>72</dim>
					<dim>3</dim>
					<dim>3</dim>
				</port>
				<port id="1" precision="FP32">
					<dim>144</dim>
					<dim>1</dim>
					<dim>1</dim>
					<dim>1</dim>
				</port>
			</input>
			<output>
				<port id="2" precision="FP32" names="/encoder/s1/b1/conv2/conv/pre_ops.0/op/FakeQuantize_output_0">
					<dim>144</dim>
					<dim>72</dim>
					<dim>3</dim>
					<dim>3</dim>
				</port>
			</output>
		</layer>
		<layer id="34" name="Reshape_16779" type="Const" version="opset1">
			<data element_type="f32" shape="144, 1, 1, 1" offset="100784" size="576" />
			<output>
				<port id="0" precision="FP32">
					<dim>144</dim>
					<dim>1</dim>
					<dim>1</dim>
					<dim>1</dim>
				</port>
			</output>
		</layer>
		<layer id="35" name="Multiply_16780" type="Multiply" version="opset1">
			<data auto_broadcast="numpy" />
			<input>
				<port id="0" precision="FP32">
					<dim>144</dim>
					<dim>72</dim>
					<dim>3</dim>
					<dim>3</dim>
				</port>
				<port id="1" precision="FP32">
					<dim>144</dim>
					<dim>1</dim>
					<dim>1</dim>
					<dim>1</dim>
				</port>
			</input>
			<output>
				<port id="2" precision="FP32">
					<dim>144</dim>
					<dim>72</dim>
					<dim>3</dim>
					<dim>3</dim>
				</port>
			</output>
		</layer>
		<layer id="36" name="Constant_581" type="Const" version="opset1">
			<data element_type="i64" shape="1" offset="101360" size="8" />
			<output>
				<port id="0" precision="I64">
					<dim>1</dim>
				</port>
			</output>
		</layer>
		<layer id="37" name="ShapeOf_582" type="ShapeOf" version="opset3">
			<data output_type="i64" />
			<input>
				<port id="0" precision="FP32">
					<dim>144</dim>
					<dim>72</dim>
					<dim>3</dim>
					<dim>3</dim>
				</port>
			</input>
			<output>
				<port id="1" precision="I64">
					<dim>4</dim>
				</port>
			</output>
		</layer>
		<layer id="38" name="Constant_579" type="Const" version="opset1">
			<data element_type="i64" shape="" offset="101368" size="8" />
			<output>
				<port id="0" precision="I64" />
			</output>
		</layer>
		<layer id="39" name="Constant_580" type="Const" version="opset1">
			<data element_type="i64" shape="2" offset="101376" size="16" />
			<output>
				<port id="0" precision="I64">
					<dim>2</dim>
				</port>
			</output>
		</layer>
		<layer id="40" name="VariadicSplit_583" type="VariadicSplit" version="opset1">
			<input>
				<port id="0" precision="I64">
					<dim>4</dim>
				</port>
				<port id="1" precision="I64" />
				<port id="2" precision="I64">
					<dim>2</dim>
				</port>
			</input>
			<output>
				<port id="3" precision="I64">
					<dim>1</dim>
				</port>
				<port id="4" precision="I64">
					<dim>3</dim>
				</port>
			</output>
		</layer>
		<layer id="41" name="Divide_584" type="Divide" version="opset1">
			<data auto_broadcast="numpy" m_pythondiv="true" />
			<input>
				<port id="0" precision="I64">
					<dim>1</dim>
				</port>
				<port id="1" precision="I64">
					<dim>1</dim>
				</port>
			</input>
			<output>
				<port id="2" precision="I64">
					<dim>1</dim>
				</port>
			</output>
		</layer>
		<layer id="42" name="Concat_585" type="Concat" version="opset1">
			<data axis="0" />
			<input>
				<port id="0" precision="I64">
					<dim>1</dim>
				</port>
				<port id="1" precision="I64">
					<dim>1</dim>
				</port>
				<port id="2" precision="I64">
					<dim>3</dim>
				</port>
			</input>
			<output>
				<port id="3" precision="I64">
					<dim>5</dim>
				</port>
			</output>
		</layer>
		<layer id="43" name="Reshape_586" type="Reshape" version="opset1">
			<data special_zero="false" />
			<input>
				<port id="0" precision="FP32">
					<dim>144</dim>
					<dim>72</dim>
					<dim>3</dim>
					<dim>3</dim>
				</port>
				<port id="1" precision="I64">
					<dim>5</dim>
				</port>
			</input>
			<output>
				<port id="2" precision="FP32">
					<dim>2</dim>
					<dim>72</dim>
					<dim>72</dim>
					<dim>3</dim>
					<dim>3</dim>
				</port>
			</output>
		</layer>
		<layer id="44" name="Multiply_16161" type="GroupConvolution" version="opset1">
			<data strides="2, 2" pads_begin="1, 1" pads_end="1, 1" dilations="1, 1" auto_pad="explicit" />
			<input>
				<port id="0" precision="FP32">
					<dim>1</dim>
					<dim>144</dim>
					<dim>224</dim>
					<dim>224</dim>
				</port>
				<port id="1" precision="FP32">
					<dim>2</dim>
					<dim>72</dim>
					<dim>72</dim>
					<dim>3</dim>
					<dim>3</dim>
				</port>
			</input>
			<output>
				<port id="2" precision="FP32" names="/encoder/s1/b1/conv2/conv/Conv_output_0">
					<dim>1</dim>
					<dim>144</dim>
					<dim>112</dim>
					<dim>112</dim>
				</port>
			</output>
		</layer>
		<layer id="45" name="Constant_16166" type="Const" version="opset1">
			<data element_type="f32" shape="1, 144, 1, 1" offset="101392" size="576" />
			<output>
				<port id="0" precision="FP32">
					<dim>1</dim>
					<dim>144</dim>
					<dim>1</dim>
					<dim>1</dim>
				</port>
			</output>
		</layer>
		<layer id="46" name="/encoder/s1/b1/conv2/bn/BatchNormalization" type="Add" version="opset1">
			<data auto_broadcast="numpy" />
			<input>
				<port id="0" precision="FP32">
					<dim>1</dim>
					<dim>144</dim>
					<dim>112</dim>
					<dim>112</dim>
				</port>
				<port id="1" precision="FP32">
					<dim>1</dim>
					<dim>144</dim>
					<dim>1</dim>
					<dim>1</dim>
				</port>
			</input>
			<output>
				<port id="2" precision="FP32" names="/encoder/s1/b1/conv2/bn/BatchNormalization_output_0">
					<dim>1</dim>
					<dim>144</dim>
					<dim>112</dim>
					<dim>112</dim>
				</port>
			</output>
		</layer>
		<layer id="47" name="Constant_17833" type="Const" version="opset1">
			<data element_type="f32" shape="1, 1, 1, 1" offset="0" size="4" />
			<output>
				<port id="0" precision="FP32">
					<dim>1</dim>
					<dim>1</dim>
					<dim>1</dim>
					<dim>1</dim>
				</port>
			</output>
		</layer>
		<layer id="48" name="Constant_17834" type="Const" version="opset1">
			<data element_type="f32" shape="1, 1, 1, 1" offset="101968" size="4" />
			<output>
				<port id="0" precision="FP32">
					<dim>1</dim>
					<dim>1</dim>
					<dim>1</dim>
					<dim>1</dim>
				</port>
			</output>
		</layer>
		<layer id="49" name="Constant_17835" type="Const" version="opset1">
			<data element_type="f32" shape="1, 1, 1, 1" offset="0" size="4" />
			<output>
				<port id="0" precision="FP32">
					<dim>1</dim>
					<dim>1</dim>
					<dim>1</dim>
					<dim>1</dim>
				</port>
			</output>
		</layer>
		<layer id="50" name="Constant_17836" type="Const" version="opset1">
			<data element_type="f32" shape="1, 1, 1, 1" offset="101968" size="4" />
			<output>
				<port id="0" precision="FP32">
					<dim>1</dim>
					<dim>1</dim>
					<dim>1</dim>
					<dim>1</dim>
				</port>
			</output>
		</layer>
		<layer id="51" name="/encoder/s1/b1/conv2/bn/act/DeepLabV3Plus/RegNetEncoder[encoder]/RegStage[s1]/Bottleneck[b1]/ConvNormAct[conv2]/BatchNormAct2d[bn]/ReLU[act]/relu__0|OUTPUT/FakeQuantize" type="FakeQuantize" version="opset1">
			<data levels="256" auto_broadcast="numpy" />
			<input>
				<port id="0" precision="FP32">
					<dim>1</dim>
					<dim>144</dim>
					<dim>112</dim>
					<dim>112</dim>
				</port>
				<port id="1" precision="FP32">
					<dim>1</dim>
					<dim>1</dim>
					<dim>1</dim>
					<dim>1</dim>
				</port>
				<port id="2" precision="FP32">
					<dim>1</dim>
					<dim>1</dim>
					<dim>1</dim>
					<dim>1</dim>
				</port>
				<port id="3" precision="FP32">
					<dim>1</dim>
					<dim>1</dim>
					<dim>1</dim>
					<dim>1</dim>
				</port>
				<port id="4" precision="FP32">
					<dim>1</dim>
					<dim>1</dim>
					<dim>1</dim>
					<dim>1</dim>
				</port>
			</input>
			<output>
				<port id="5" precision="FP32" names="/encoder/s1/b1/conv2/bn/act/DeepLabV3Plus/RegNetEncoder[encoder]/RegStage[s1]/Bottleneck[b1]/ConvNormAct[conv2]/BatchNormAct2d[bn]/ReLU[act]/relu__0|OUTPUT/FakeQuantize_output_0">
					<dim>1</dim>
					<dim>144</dim>
					<dim>112</dim>
					<dim>112</dim>
				</port>
			</output>
		</layer>
		<layer id="52" name="Constant_631" type="Const" version="opset1">
			<data element_type="i64" shape="2" offset="101972" size="16" />
			<output>
				<port id="0" precision="I64">
					<dim>2</dim>
				</port>
			</output>
		</layer>
		<layer id="53" name="/encoder/s1/b1/se/ReduceMean" type="ReduceMean" version="opset1">
			<data keep_dims="true" />
			<input>
				<port id="0" precision="FP32">
					<dim>1</dim>
					<dim>144</dim>
					<dim>112</dim>
					<dim>112</dim>
				</port>
				<port id="1" precision="I64">
					<dim>2</dim>
				</port>
			</input>
			<output>
				<port id="2" precision="FP32" names="/encoder/s1/b1/se/ReduceMean_output_0">
					<dim>1</dim>
					<dim>144</dim>
					<dim>1</dim>
					<dim>1</dim>
				</port>
			</output>
		</layer>
		<layer id="54" name="encoder.s1.b1.se.fc1.weight" type="Const" version="opset1">
			<data element_type="f32" shape="8, 144, 1, 1" offset="101988" size="4608" />
			<output>
				<port id="0" precision="FP32" names="encoder.s1.b1.se.fc1.weight">
					<dim>8</dim>
					<dim>144</dim>
					<dim>1</dim>
					<dim>1</dim>
				</port>
			</output>
		</layer>
		<layer id="55" name="/encoder/s1/b1/se/fc1/Conv/WithoutBiases" type="Convolution" version="opset1">
			<data strides="1, 1" dilations="1, 1" pads_begin="0, 0" pads_end="0, 0" auto_pad="explicit" />
			<input>
				<port id="0" precision="FP32">
					<dim>1</dim>
					<dim>144</dim>
					<dim>1</dim>
					<dim>1</dim>
				</port>
				<port id="1" precision="FP32">
					<dim>8</dim>
					<dim>144</dim>
					<dim>1</dim>
					<dim>1</dim>
				</port>
			</input>
			<output>
				<port id="2" precision="FP32">
					<dim>1</dim>
					<dim>8</dim>
					<dim>1</dim>
					<dim>1</dim>
				</port>
			</output>
		</layer>
		<layer id="56" name="Reshape_645" type="Const" version="opset1">
			<data element_type="f32" shape="1, 8, 1, 1" offset="106596" size="32" />
			<output>
				<port id="0" precision="FP32">
					<dim>1</dim>
					<dim>8</dim>
					<dim>1</dim>
					<dim>1</dim>
				</port>
			</output>
		</layer>
		<layer id="57" name="/encoder/s1/b1/se/fc1/Conv" type="Add" version="opset1">
			<data auto_broadcast="numpy" />
			<input>
				<port id="0" precision="FP32">
					<dim>1</dim>
					<dim>8</dim>
					<dim>1</dim>
					<dim>1</dim>
				</port>
				<port id="1" precision="FP32">
					<dim>1</dim>
					<dim>8</dim>
					<dim>1</dim>
					<dim>1</dim>
				</port>
			</input>
			<output>
				<port id="2" precision="FP32" names="/encoder/s1/b1/se/fc1/Conv_output_0">
					<dim>1</dim>
					<dim>8</dim>
					<dim>1</dim>
					<dim>1</dim>
				</port>
			</output>
		</layer>
		<layer id="58" name="/encoder/s1/b1/se/act/Relu" type="ReLU" version="opset1">
			<input>
				<port id="0" precision="FP32">
					<dim>1</dim>
					<dim>8</dim>
					<dim>1</dim>
					<dim>1</dim>
				</port>
			</input>
			<output>
				<port id="1" precision="FP32" names="/encoder/s1/b1/se/act/Relu_output_0">
					<dim>1</dim>
					<dim>8</dim>
					<dim>1</dim>
					<dim>1</dim>
				</port>
			</output>
		</layer>
		<layer id="59" name="encoder.s1.b1.se.fc2.weight" type="Const" version="opset1">
			<data element_type="f32" shape="144, 8, 1, 1" offset="106628" size="4608" />
			<output>
				<port id="0" precision="FP32" names="encoder.s1.b1.se.fc2.weight">
					<dim>144</dim>
					<dim>8</dim>
					<dim>1</dim>
					<dim>1</dim>
				</port>
			</output>
		</layer>
		<layer id="60" name="/encoder/s1/b1/se/fc2/Conv/WithoutBiases" type="Convolution" version="opset1">
			<data strides="1, 1" dilations="1, 1" pads_begin="0, 0" pads_end="0, 0" auto_pad="explicit" />
			<input>
				<port id="0" precision="FP32">
					<dim>1</dim>
					<dim>8</dim>
					<dim>1</dim>
					<dim>1</dim>
				</port>
				<port id="1" precision="FP32">
					<dim>144</dim>
					<dim>8</dim>
					<dim>1</dim>
					<dim>1</dim>
				</port>
			</input>
			<output>
				<port id="2" precision="FP32">
					<dim>1</dim>
					<dim>144</dim>
					<dim>1</dim>
					<dim>1</dim>
				</port>
			</output>
		</layer>
		<layer id="61" name="Reshape_662" type="Const" version="opset1">
			<data element_type="f32" shape="1, 144, 1, 1" offset="111236" size="576" />
			<output>
				<port id="0" precision="FP32">
					<dim>1</dim>
					<dim>144</dim>
					<dim>1</dim>
					<dim>1</dim>
				</port>
			</output>
		</layer>
		<layer id="62" name="/encoder/s1/b1/se/fc2/Conv" type="Add" version="opset1">
			<data auto_broadcast="numpy" />
			<input>
				<port id="0" precision="FP32">
					<dim>1</dim>
					<dim>144</dim>
					<dim>1</dim>
					<dim>1</dim>
				</port>
				<port id="1" precision="FP32">
					<dim>1</dim>
					<dim>144</dim>
					<dim>1</dim>
					<dim>1</dim>
				</port>
			</input>
			<output>
				<port id="2" precision="FP32" names="/encoder/s1/b1/se/fc2/Conv_output_0">
					<dim>1</dim>
					<dim>144</dim>
					<dim>1</dim>
					<dim>1</dim>
				</port>
			</output>
		</layer>
		<layer id="63" name="/encoder/s1/b1/se/gate/Sigmoid" type="Sigmoid" version="opset1">
			<input>
				<port id="0" precision="FP32">
					<dim>1</dim>
					<dim>144</dim>
					<dim>1</dim>
					<dim>1</dim>
				</port>
			</input>
			<output>
				<port id="1" precision="FP32" names="/encoder/s1/b1/se/gate/Sigmoid_output_0">
					<dim>1</dim>
					<dim>144</dim>
					<dim>1</dim>
					<dim>1</dim>
				</port>
			</output>
		</layer>
		<layer id="64" name="Constant_17837" type="Const" version="opset1">
			<data element_type="f32" shape="1, 1, 1, 1" offset="0" size="4" />
			<output>
				<port id="0" precision="FP32">
					<dim>1</dim>
					<dim>1</dim>
					<dim>1</dim>
					<dim>1</dim>
				</port>
			</output>
		</layer>
		<layer id="65" name="Constant_17838" type="Const" version="opset1">
			<data element_type="f32" shape="1, 1, 1, 1" offset="111812" size="4" />
			<output>
				<port id="0" precision="FP32">
					<dim>1</dim>
					<dim>1</dim>
					<dim>1</dim>
					<dim>1</dim>
				</port>
			</output>
		</layer>
		<layer id="66" name="Constant_17839" type="Const" version="opset1">
			<data element_type="f32" shape="1, 1, 1, 1" offset="0" size="4" />
			<output>
				<port id="0" precision="FP32">
					<dim>1</dim>
					<dim>1</dim>
					<dim>1</dim>
					<dim>1</dim>
				</port>
			</output>
		</layer>
		<layer id="67" name="Constant_17840" type="Const" version="opset1">
			<data element_type="f32" shape="1, 1, 1, 1" offset="111812" size="4" />
			<output>
				<port id="0" precision="FP32">
					<dim>1</dim>
					<dim>1</dim>
					<dim>1</dim>
					<dim>1</dim>
				</port>
			</output>
		</layer>
		<layer id="68" name="/encoder/s1/b1/se/gate/DeepLabV3Plus/RegNetEncoder[encoder]/RegStage[s1]/Bottleneck[b1]/SEModule[se]/Sigmoid[gate]/sigmoid_0|OUTPUT/FakeQuantize" type="FakeQuantize" version="opset1">
			<data levels="256" auto_broadcast="numpy" />
			<input>
				<port id="0" precision="FP32">
					<dim>1</dim>
					<dim>144</dim>
					<dim>1</dim>
					<dim>1</dim>
				</port>
				<port id="1" precision="FP32">
					<dim>1</dim>
					<dim>1</dim>
					<dim>1</dim>
					<dim>1</dim>
				</port>
				<port id="2" precision="FP32">
					<dim>1</dim>
					<dim>1</dim>
					<dim>1</dim>
					<dim>1</dim>
				</port>
				<port id="3" precision="FP32">
					<dim>1</dim>
					<dim>1</dim>
					<dim>1</dim>
					<dim>1</dim>
				</port>
				<port id="4" precision="FP32">
					<dim>1</dim>
					<dim>1</dim>
					<dim>1</dim>
					<dim>1</dim>
				</port>
			</input>
			<output>
				<port id="5" precision="FP32" names="/encoder/s1/b1/se/gate/DeepLabV3Plus/RegNetEncoder[encoder]/RegStage[s1]/Bottleneck[b1]/SEModule[se]/Sigmoid[gate]/sigmoid_0|OUTPUT/FakeQuantize_output_0">
					<dim>1</dim>
					<dim>144</dim>
					<dim>1</dim>
					<dim>1</dim>
				</port>
			</output>
		</layer>
		<layer id="69" name="/encoder/s1/b1/se/Mul" type="Multiply" version="opset1">
			<data auto_broadcast="numpy" />
			<input>
				<port id="0" precision="FP32">
					<dim>1</dim>
					<dim>144</dim>
					<dim>112</dim>
					<dim>112</dim>
				</port>
				<port id="1" precision="FP32">
					<dim>1</dim>
					<dim>144</dim>
					<dim>1</dim>
					<dim>1</dim>
				</port>
			</input>
			<output>
				<port id="2" precision="FP32" names="/encoder/s1/b1/se/Mul_output_0">
					<dim>1</dim>
					<dim>144</dim>
					<dim>112</dim>
					<dim>112</dim>
				</port>
			</output>
		</layer>
		<layer id="70" name="Constant_17841" type="Const" version="opset1">
			<data element_type="f32" shape="1, 1, 1, 1" offset="0" size="4" />
			<output>
				<port id="0" precision="FP32">
					<dim>1</dim>
					<dim>1</dim>
					<dim>1</dim>
					<dim>1</dim>
				</port>
			</output>
		</layer>
		<layer id="71" name="Constant_17842" type="Const" version="opset1">
			<data element_type="f32" shape="1, 1, 1, 1" offset="111816" size="4" />
			<output>
				<port id="0" precision="FP32">
					<dim>1</dim>
					<dim>1</dim>
					<dim>1</dim>
					<dim>1</dim>
				</port>
			</output>
		</layer>
		<layer id="72" name="Constant_17843" type="Const" version="opset1">
			<data element_type="f32" shape="1, 1, 1, 1" offset="0" size="4" />
			<output>
				<port id="0" precision="FP32">
					<dim>1</dim>
					<dim>1</dim>
					<dim>1</dim>
					<dim>1</dim>
				</port>
			</output>
		</layer>
		<layer id="73" name="Constant_17844" type="Const" version="opset1">
			<data element_type="f32" shape="1, 1, 1, 1" offset="111816" size="4" />
			<output>
				<port id="0" precision="FP32">
					<dim>1</dim>
					<dim>1</dim>
					<dim>1</dim>
					<dim>1</dim>
				</port>
			</output>
		</layer>
		<layer id="74" name="/encoder/s1/b1/se/DeepLabV3Plus/RegNetEncoder[encoder]/RegStage[s1]/Bottleneck[b1]/SEModule[se]/__mul___0|OUTPUT/FakeQuantize" type="FakeQuantize" version="opset1">
			<data levels="256" auto_broadcast="numpy" />
			<input>
				<port id="0" precision="FP32">
					<dim>1</dim>
					<dim>144</dim>
					<dim>112</dim>
					<dim>112</dim>
				</port>
				<port id="1" precision="FP32">
					<dim>1</dim>
					<dim>1</dim>
					<dim>1</dim>
					<dim>1</dim>
				</port>
				<port id="2" precision="FP32">
					<dim>1</dim>
					<dim>1</dim>
					<dim>1</dim>
					<dim>1</dim>
				</port>
				<port id="3" precision="FP32">
					<dim>1</dim>
					<dim>1</dim>
					<dim>1</dim>
					<dim>1</dim>
				</port>
				<port id="4" precision="FP32">
					<dim>1</dim>
					<dim>1</dim>
					<dim>1</dim>
					<dim>1</dim>
				</port>
			</input>
			<output>
				<port id="5" precision="FP32" names="/encoder/s1/b1/se/DeepLabV3Plus/RegNetEncoder[encoder]/RegStage[s1]/Bottleneck[b1]/SEModule[se]/__mul___0|OUTPUT/FakeQuantize_output_0">
					<dim>1</dim>
					<dim>144</dim>
					<dim>112</dim>
					<dim>112</dim>
				</port>
			</output>
		</layer>
		<layer id="75" name="Constant_19953" type="Const" version="opset1">
			<data element_type="i8" shape="144, 144, 1, 1" offset="111820" size="20736" />
			<output>
				<port id="0" precision="I8">
					<dim>144</dim>
					<dim>144</dim>
					<dim>1</dim>
					<dim>1</dim>
				</port>
			</output>
		</layer>
		<layer id="76" name="Convert_19954" type="Convert" version="opset1">
			<data destination_type="f32" />
			<input>
				<port id="0" precision="I8">
					<dim>144</dim>
					<dim>144</dim>
					<dim>1</dim>
					<dim>1</dim>
				</port>
			</input>
			<output>
				<port id="1" precision="FP32">
					<dim>144</dim>
					<dim>144</dim>
					<dim>1</dim>
					<dim>1</dim>
				</port>
			</output>
		</layer>
		<layer id="77" name="Constant_19955" type="Const" version="opset1">
			<data element_type="f32" shape="144, 1, 1, 1" offset="132556" size="576" />
			<output>
				<port id="0" precision="FP32">
					<dim>144</dim>
					<dim>1</dim>
					<dim>1</dim>
					<dim>1</dim>
				</port>
			</output>
		</layer>
		<layer id="78" name="Multiply_16783" type="Multiply" version="opset1">
			<data auto_broadcast="numpy" />
			<input>
				<port id="0" precision="FP32">
					<dim>144</dim>
					<dim>144</dim>
					<dim>1</dim>
					<dim>1</dim>
				</port>
				<port id="1" precision="FP32">
					<dim>144</dim>
					<dim>1</dim>
					<dim>1</dim>
					<dim>1</dim>
				</port>
			</input>
			<output>
				<port id="2" precision="FP32">
					<dim>144</dim>
					<dim>144</dim>
					<dim>1</dim>
					<dim>1</dim>
				</port>
			</output>
		</layer>
		<layer id="79" name="Multiply_16168" type="Convolution" version="opset1">
			<data strides="1, 1" dilations="1, 1" pads_begin="0, 0" pads_end="0, 0" auto_pad="explicit" />
			<input>
				<port id="0" precision="FP32">
					<dim>1</dim>
					<dim>144</dim>
					<dim>112</dim>
					<dim>112</dim>
				</port>
				<port id="1" precision="FP32">
					<dim>144</dim>
					<dim>144</dim>
					<dim>1</dim>
					<dim>1</dim>
				</port>
			</input>
			<output>
				<port id="2" precision="FP32">
					<dim>1</dim>
					<dim>144</dim>
					<dim>112</dim>
					<dim>112</dim>
				</port>
			</output>
		</layer>
		<layer id="80" name="Constant_16173" type="Const" version="opset1">
			<data element_type="f32" shape="1, 144, 1, 1" offset="133132" size="576" />
			<output>
				<port id="0" precision="FP32">
					<dim>1</dim>
					<dim>144</dim>
					<dim>1</dim>
					<dim>1</dim>
				</port>
			</output>
		</layer>
		<layer id="81" name="/encoder/s1/b1/conv3/bn/BatchNormalization" type="Add" version="opset1">
			<data auto_broadcast="numpy" />
			<input>
				<port id="0" precision="FP32">
					<dim>1</dim>
					<dim>144</dim>
					<dim>112</dim>
					<dim>112</dim>
				</port>
				<port id="1" precision="FP32">
					<dim>1</dim>
					<dim>144</dim>
					<dim>1</dim>
					<dim>1</dim>
				</port>
			</input>
			<output>
				<port id="2" precision="FP32" names="/encoder/s1/b1/conv3/bn/BatchNormalization_output_0">
					<dim>1</dim>
					<dim>144</dim>
					<dim>112</dim>
					<dim>112</dim>
				</port>
			</output>
		</layer>
		<layer id="82" name="Constant_17845" type="Const" version="opset1">
			<data element_type="f32" shape="1, 1, 1, 1" offset="133708" size="4" />
			<output>
				<port id="0" precision="FP32">
					<dim>1</dim>
					<dim>1</dim>
					<dim>1</dim>
					<dim>1</dim>
				</port>
			</output>
		</layer>
		<layer id="83" name="Constant_17846" type="Const" version="opset1">
			<data element_type="f32" shape="1, 1, 1, 1" offset="133712" size="4" />
			<output>
				<port id="0" precision="FP32">
					<dim>1</dim>
					<dim>1</dim>
					<dim>1</dim>
					<dim>1</dim>
				</port>
			</output>
		</layer>
		<layer id="84" name="Constant_17847" type="Const" version="opset1">
			<data element_type="f32" shape="1, 1, 1, 1" offset="133708" size="4" />
			<output>
				<port id="0" precision="FP32">
					<dim>1</dim>
					<dim>1</dim>
					<dim>1</dim>
					<dim>1</dim>
				</port>
			</output>
		</layer>
		<layer id="85" name="Constant_17848" type="Const" version="opset1">
			<data element_type="f32" shape="1, 1, 1, 1" offset="133712" size="4" />
			<output>
				<port id="0" precision="FP32">
					<dim>1</dim>
					<dim>1</dim>
					<dim>1</dim>
					<dim>1</dim>
				</port>
			</output>
		</layer>
		<layer id="86" name="/encoder/s1/b1/conv3/bn/DeepLabV3Plus/RegNetEncoder[encoder]/RegStage[s1]/Bottleneck[b1]/ConvNormAct[conv3]/BatchNormAct2d[bn]/batch_norm_0|OUTPUT/FakeQuantize" type="FakeQuantize" version="opset1">
			<data levels="256" auto_broadcast="numpy" />
			<input>
				<port id="0" precision="FP32">
					<dim>1</dim>
					<dim>144</dim>
					<dim>112</dim>
					<dim>112</dim>
				</port>
				<port id="1" precision="FP32">
					<dim>1</dim>
					<dim>1</dim>
					<dim>1</dim>
					<dim>1</dim>
				</port>
				<port id="2" precision="FP32">
					<dim>1</dim>
					<dim>1</dim>
					<dim>1</dim>
					<dim>1</dim>
				</port>
				<port id="3" precision="FP32">
					<dim>1</dim>
					<dim>1</dim>
					<dim>1</dim>
					<dim>1</dim>
				</port>
				<port id="4" precision="FP32">
					<dim>1</dim>
					<dim>1</dim>
					<dim>1</dim>
					<dim>1</dim>
				</port>
			</input>
			<output>
				<port id="5" precision="FP32" names="/encoder/s1/b1/conv3/bn/DeepLabV3Plus/RegNetEncoder[encoder]/RegStage[s1]/Bottleneck[b1]/ConvNormAct[conv3]/BatchNormAct2d[bn]/batch_norm_0|OUTPUT/FakeQuantize_output_0">
					<dim>1</dim>
					<dim>144</dim>
					<dim>112</dim>
					<dim>112</dim>
				</port>
			</output>
		</layer>
		<layer id="87" name="Constant_19957" type="Const" version="opset1">
			<data element_type="i8" shape="144, 32, 1, 1" offset="133716" size="4608" />
			<output>
				<port id="0" precision="I8">
					<dim>144</dim>
					<dim>32</dim>
					<dim>1</dim>
					<dim>1</dim>
				</port>
			</output>
		</layer>
		<layer id="88" name="Convert_19958" type="Convert" version="opset1">
			<data destination_type="f32" />
			<input>
				<port id="0" precision="I8">
					<dim>144</dim>
					<dim>32</dim>
					<dim>1</dim>
					<dim>1</dim>
				</port>
			</input>
			<output>
				<port id="1" precision="FP32">
					<dim>144</dim>
					<dim>32</dim>
					<dim>1</dim>
					<dim>1</dim>
				</port>
			</output>
		</layer>
		<layer id="89" name="Constant_19959" type="Const" version="opset1">
			<data element_type="f32" shape="144, 1, 1, 1" offset="138324" size="576" />
			<output>
				<port id="0" precision="FP32">
					<dim>144</dim>
					<dim>1</dim>
					<dim>1</dim>
					<dim>1</dim>
				</port>
			</output>
		</layer>
		<layer id="90" name="Multiply_16787" type="Multiply" version="opset1">
			<data auto_broadcast="numpy" />
			<input>
				<port id="0" precision="FP32">
					<dim>144</dim>
					<dim>32</dim>
					<dim>1</dim>
					<dim>1</dim>
				</port>
				<port id="1" precision="FP32">
					<dim>144</dim>
					<dim>1</dim>
					<dim>1</dim>
					<dim>1</dim>
				</port>
			</input>
			<output>
				<port id="2" precision="FP32">
					<dim>144</dim>
					<dim>32</dim>
					<dim>1</dim>
					<dim>1</dim>
				</port>
			</output>
		</layer>
		<layer id="91" name="Multiply_16175" type="Convolution" version="opset1">
			<data strides="2, 2" dilations="1, 1" pads_begin="0, 0" pads_end="0, 0" auto_pad="explicit" />
			<input>
				<port id="0" precision="FP32">
					<dim>1</dim>
					<dim>32</dim>
					<dim>224</dim>
					<dim>224</dim>
				</port>
				<port id="1" precision="FP32">
					<dim>144</dim>
					<dim>32</dim>
					<dim>1</dim>
					<dim>1</dim>
				</port>
			</input>
			<output>
				<port id="2" precision="FP32">
					<dim>1</dim>
					<dim>144</dim>
					<dim>112</dim>
					<dim>112</dim>
				</port>
			</output>
		</layer>
		<layer id="92" name="Constant_16180" type="Const" version="opset1">
			<data element_type="f32" shape="1, 144, 1, 1" offset="138900" size="576" />
			<output>
				<port id="0" precision="FP32">
					<dim>1</dim>
					<dim>144</dim>
					<dim>1</dim>
					<dim>1</dim>
				</port>
			</output>
		</layer>
		<layer id="93" name="/encoder/s1/b1/downsample/bn/BatchNormalization" type="Add" version="opset1">
			<data auto_broadcast="numpy" />
			<input>
				<port id="0" precision="FP32">
					<dim>1</dim>
					<dim>144</dim>
					<dim>112</dim>
					<dim>112</dim>
				</port>
				<port id="1" precision="FP32">
					<dim>1</dim>
					<dim>144</dim>
					<dim>1</dim>
					<dim>1</dim>
				</port>
			</input>
			<output>
				<port id="2" precision="FP32" names="/encoder/s1/b1/downsample/bn/BatchNormalization_output_0">
					<dim>1</dim>
					<dim>144</dim>
					<dim>112</dim>
					<dim>112</dim>
				</port>
			</output>
		</layer>
		<layer id="94" name="Constant_17849" type="Const" version="opset1">
			<data element_type="f32" shape="1, 1, 1, 1" offset="139476" size="4" />
			<output>
				<port id="0" precision="FP32">
					<dim>1</dim>
					<dim>1</dim>
					<dim>1</dim>
					<dim>1</dim>
				</port>
			</output>
		</layer>
		<layer id="95" name="Constant_17850" type="Const" version="opset1">
			<data element_type="f32" shape="1, 1, 1, 1" offset="139480" size="4" />
			<output>
				<port id="0" precision="FP32">
					<dim>1</dim>
					<dim>1</dim>
					<dim>1</dim>
					<dim>1</dim>
				</port>
			</output>
		</layer>
		<layer id="96" name="Constant_17851" type="Const" version="opset1">
			<data element_type="f32" shape="1, 1, 1, 1" offset="139476" size="4" />
			<output>
				<port id="0" precision="FP32">
					<dim>1</dim>
					<dim>1</dim>
					<dim>1</dim>
					<dim>1</dim>
				</port>
			</output>
		</layer>
		<layer id="97" name="Constant_17852" type="Const" version="opset1">
			<data element_type="f32" shape="1, 1, 1, 1" offset="139480" size="4" />
			<output>
				<port id="0" precision="FP32">
					<dim>1</dim>
					<dim>1</dim>
					<dim>1</dim>
					<dim>1</dim>
				</port>
			</output>
		</layer>
		<layer id="98" name="/encoder/s1/b1/downsample/bn/DeepLabV3Plus/RegNetEncoder[encoder]/RegStage[s1]/Bottleneck[b1]/ConvNormAct[downsample]/BatchNormAct2d[bn]/batch_norm_0|OUTPUT/FakeQuantize" type="FakeQuantize" version="opset1">
			<data levels="256" auto_broadcast="numpy" />
			<input>
				<port id="0" precision="FP32">
					<dim>1</dim>
					<dim>144</dim>
					<dim>112</dim>
					<dim>112</dim>
				</port>
				<port id="1" precision="FP32">
					<dim>1</dim>
					<dim>1</dim>
					<dim>1</dim>
					<dim>1</dim>
				</port>
				<port id="2" precision="FP32">
					<dim>1</dim>
					<dim>1</dim>
					<dim>1</dim>
					<dim>1</dim>
				</port>
				<port id="3" precision="FP32">
					<dim>1</dim>
					<dim>1</dim>
					<dim>1</dim>
					<dim>1</dim>
				</port>
				<port id="4" precision="FP32">
					<dim>1</dim>
					<dim>1</dim>
					<dim>1</dim>
					<dim>1</dim>
				</port>
			</input>
			<output>
				<port id="5" precision="FP32" names="/encoder/s1/b1/downsample/bn/DeepLabV3Plus/RegNetEncoder[encoder]/RegStage[s1]/Bottleneck[b1]/ConvNormAct[downsample]/BatchNormAct2d[bn]/batch_norm_0|OUTPUT/FakeQuantize_output_0">
					<dim>1</dim>
					<dim>144</dim>
					<dim>112</dim>
					<dim>112</dim>
				</port>
			</output>
		</layer>
		<layer id="99" name="/encoder/s1/b1/Add" type="Add" version="opset1">
			<data auto_broadcast="numpy" />
			<input>
				<port id="0" precision="FP32">
					<dim>1</dim>
					<dim>144</dim>
					<dim>112</dim>
					<dim>112</dim>
				</port>
				<port id="1" precision="FP32">
					<dim>1</dim>
					<dim>144</dim>
					<dim>112</dim>
					<dim>112</dim>
				</port>
			</input>
			<output>
				<port id="2" precision="FP32" names="/encoder/s1/b1/Add_output_0">
					<dim>1</dim>
					<dim>144</dim>
					<dim>112</dim>
					<dim>112</dim>
				</port>
			</output>
		</layer>
		<layer id="100" name="Constant_17853" type="Const" version="opset1">
			<data element_type="f32" shape="1, 1, 1, 1" offset="0" size="4" />
			<output>
				<port id="0" precision="FP32">
					<dim>1</dim>
					<dim>1</dim>
					<dim>1</dim>
					<dim>1</dim>
				</port>
			</output>
		</layer>
		<layer id="101" name="Constant_17854" type="Const" version="opset1">
			<data element_type="f32" shape="1, 1, 1, 1" offset="139484" size="4" />
			<output>
				<port id="0" precision="FP32">
					<dim>1</dim>
					<dim>1</dim>
					<dim>1</dim>
					<dim>1</dim>
				</port>
			</output>
		</layer>
		<layer id="102" name="Constant_17855" type="Const" version="opset1">
			<data element_type="f32" shape="1, 1, 1, 1" offset="0" size="4" />
			<output>
				<port id="0" precision="FP32">
					<dim>1</dim>
					<dim>1</dim>
					<dim>1</dim>
					<dim>1</dim>
				</port>
			</output>
		</layer>
		<layer id="103" name="Constant_17856" type="Const" version="opset1">
			<data element_type="f32" shape="1, 1, 1, 1" offset="139484" size="4" />
			<output>
				<port id="0" precision="FP32">
					<dim>1</dim>
					<dim>1</dim>
					<dim>1</dim>
					<dim>1</dim>
				</port>
			</output>
		</layer>
		<layer id="104" name="/encoder/s1/b1/act3/DeepLabV3Plus/RegNetEncoder[encoder]/RegStage[s1]/Bottleneck[b1]/ReLU[act3]/relu_0|OUTPUT/FakeQuantize" type="FakeQuantize" version="opset1">
			<data levels="256" auto_broadcast="numpy" />
			<input>
				<port id="0" precision="FP32">
					<dim>1</dim>
					<dim>144</dim>
					<dim>112</dim>
					<dim>112</dim>
				</port>
				<port id="1" precision="FP32">
					<dim>1</dim>
					<dim>1</dim>
					<dim>1</dim>
					<dim>1</dim>
				</port>
				<port id="2" precision="FP32">
					<dim>1</dim>
					<dim>1</dim>
					<dim>1</dim>
					<dim>1</dim>
				</port>
				<port id="3" precision="FP32">
					<dim>1</dim>
					<dim>1</dim>
					<dim>1</dim>
					<dim>1</dim>
				</port>
				<port id="4" precision="FP32">
					<dim>1</dim>
					<dim>1</dim>
					<dim>1</dim>
					<dim>1</dim>
				</port>
			</input>
			<output>
				<port id="5" precision="FP32" names="/encoder/s1/b1/act3/DeepLabV3Plus/RegNetEncoder[encoder]/RegStage[s1]/Bottleneck[b1]/ReLU[act3]/relu_0|OUTPUT/FakeQuantize_output_0">
					<dim>1</dim>
					<dim>144</dim>
					<dim>112</dim>
					<dim>112</dim>
				</port>
			</output>
		</layer>
		<layer id="105" name="Constant_19961" type="Const" version="opset1">
			<data element_type="i8" shape="144, 144, 1, 1" offset="139488" size="20736" />
			<output>
				<port id="0" precision="I8">
					<dim>144</dim>
					<dim>144</dim>
					<dim>1</dim>
					<dim>1</dim>
				</port>
			</output>
		</layer>
		<layer id="106" name="Convert_19962" type="Convert" version="opset1">
			<data destination_type="f32" />
			<input>
				<port id="0" precision="I8">
					<dim>144</dim>
					<dim>144</dim>
					<dim>1</dim>
					<dim>1</dim>
				</port>
			</input>
			<output>
				<port id="1" precision="FP32">
					<dim>144</dim>
					<dim>144</dim>
					<dim>1</dim>
					<dim>1</dim>
				</port>
			</output>
		</layer>
		<layer id="107" name="Constant_19963" type="Const" version="opset1">
			<data element_type="f32" shape="144, 1, 1, 1" offset="160224" size="576" />
			<output>
				<port id="0" precision="FP32">
					<dim>144</dim>
					<dim>1</dim>
					<dim>1</dim>
					<dim>1</dim>
				</port>
			</output>
		</layer>
		<layer id="108" name="Multiply_16791" type="Multiply" version="opset1">
			<data auto_broadcast="numpy" />
			<input>
				<port id="0" precision="FP32">
					<dim>144</dim>
					<dim>144</dim>
					<dim>1</dim>
					<dim>1</dim>
				</port>
				<port id="1" precision="FP32">
					<dim>144</dim>
					<dim>1</dim>
					<dim>1</dim>
					<dim>1</dim>
				</port>
			</input>
			<output>
				<port id="2" precision="FP32">
					<dim>144</dim>
					<dim>144</dim>
					<dim>1</dim>
					<dim>1</dim>
				</port>
			</output>
		</layer>
		<layer id="109" name="Multiply_16182" type="Convolution" version="opset1">
			<data strides="1, 1" dilations="1, 1" pads_begin="0, 0" pads_end="0, 0" auto_pad="explicit" />
			<input>
				<port id="0" precision="FP32">
					<dim>1</dim>
					<dim>144</dim>
					<dim>112</dim>
					<dim>112</dim>
				</port>
				<port id="1" precision="FP32">
					<dim>144</dim>
					<dim>144</dim>
					<dim>1</dim>
					<dim>1</dim>
				</port>
			</input>
			<output>
				<port id="2" precision="FP32">
					<dim>1</dim>
					<dim>144</dim>
					<dim>112</dim>
					<dim>112</dim>
				</port>
			</output>
		</layer>
		<layer id="110" name="Constant_16187" type="Const" version="opset1">
			<data element_type="f32" shape="1, 144, 1, 1" offset="160800" size="576" />
			<output>
				<port id="0" precision="FP32">
					<dim>1</dim>
					<dim>144</dim>
					<dim>1</dim>
					<dim>1</dim>
				</port>
			</output>
		</layer>
		<layer id="111" name="/encoder/s1/b2/conv1/bn/BatchNormalization" type="Add" version="opset1">
			<data auto_broadcast="numpy" />
			<input>
				<port id="0" precision="FP32">
					<dim>1</dim>
					<dim>144</dim>
					<dim>112</dim>
					<dim>112</dim>
				</port>
				<port id="1" precision="FP32">
					<dim>1</dim>
					<dim>144</dim>
					<dim>1</dim>
					<dim>1</dim>
				</port>
			</input>
			<output>
				<port id="2" precision="FP32" names="/encoder/s1/b2/conv1/bn/BatchNormalization_output_0">
					<dim>1</dim>
					<dim>144</dim>
					<dim>112</dim>
					<dim>112</dim>
				</port>
			</output>
		</layer>
		<layer id="112" name="Constant_17857" type="Const" version="opset1">
			<data element_type="f32" shape="1, 1, 1, 1" offset="0" size="4" />
			<output>
				<port id="0" precision="FP32">
					<dim>1</dim>
					<dim>1</dim>
					<dim>1</dim>
					<dim>1</dim>
				</port>
			</output>
		</layer>
		<layer id="113" name="Constant_17858" type="Const" version="opset1">
			<data element_type="f32" shape="1, 1, 1, 1" offset="161376" size="4" />
			<output>
				<port id="0" precision="FP32">
					<dim>1</dim>
					<dim>1</dim>
					<dim>1</dim>
					<dim>1</dim>
				</port>
			</output>
		</layer>
		<layer id="114" name="Constant_17859" type="Const" version="opset1">
			<data element_type="f32" shape="1, 1, 1, 1" offset="0" size="4" />
			<output>
				<port id="0" precision="FP32">
					<dim>1</dim>
					<dim>1</dim>
					<dim>1</dim>
					<dim>1</dim>
				</port>
			</output>
		</layer>
		<layer id="115" name="Constant_17860" type="Const" version="opset1">
			<data element_type="f32" shape="1, 1, 1, 1" offset="161376" size="4" />
			<output>
				<port id="0" precision="FP32">
					<dim>1</dim>
					<dim>1</dim>
					<dim>1</dim>
					<dim>1</dim>
				</port>
			</output>
		</layer>
		<layer id="116" name="/encoder/s1/b2/conv1/bn/act/DeepLabV3Plus/RegNetEncoder[encoder]/RegStage[s1]/Bottleneck[b2]/ConvNormAct[conv1]/BatchNormAct2d[bn]/ReLU[act]/relu__0|OUTPUT/FakeQuantize" type="FakeQuantize" version="opset1">
			<data levels="256" auto_broadcast="numpy" />
			<input>
				<port id="0" precision="FP32">
					<dim>1</dim>
					<dim>144</dim>
					<dim>112</dim>
					<dim>112</dim>
				</port>
				<port id="1" precision="FP32">
					<dim>1</dim>
					<dim>1</dim>
					<dim>1</dim>
					<dim>1</dim>
				</port>
				<port id="2" precision="FP32">
					<dim>1</dim>
					<dim>1</dim>
					<dim>1</dim>
					<dim>1</dim>
				</port>
				<port id="3" precision="FP32">
					<dim>1</dim>
					<dim>1</dim>
					<dim>1</dim>
					<dim>1</dim>
				</port>
				<port id="4" precision="FP32">
					<dim>1</dim>
					<dim>1</dim>
					<dim>1</dim>
					<dim>1</dim>
				</port>
			</input>
			<output>
				<port id="5" precision="FP32" names="/encoder/s1/b2/conv1/bn/act/DeepLabV3Plus/RegNetEncoder[encoder]/RegStage[s1]/Bottleneck[b2]/ConvNormAct[conv1]/BatchNormAct2d[bn]/ReLU[act]/relu__0|OUTPUT/FakeQuantize_output_0">
					<dim>1</dim>
					<dim>144</dim>
					<dim>112</dim>
					<dim>112</dim>
				</port>
			</output>
		</layer>
		<layer id="117" name="Constant_19965" type="Const" version="opset1">
			<data element_type="i8" shape="144, 72, 3, 3" offset="161380" size="93312" />
			<output>
				<port id="0" precision="I8">
					<dim>144</dim>
					<dim>72</dim>
					<dim>3</dim>
					<dim>3</dim>
				</port>
			</output>
		</layer>
		<layer id="118" name="Convert_19966" type="Convert" version="opset1">
			<data destination_type="f32" />
			<input>
				<port id="0" precision="I8">
					<dim>144</dim>
					<dim>72</dim>
					<dim>3</dim>
					<dim>3</dim>
				</port>
			</input>
			<output>
				<port id="1" precision="FP32">
					<dim>144</dim>
					<dim>72</dim>
					<dim>3</dim>
					<dim>3</dim>
				</port>
			</output>
		</layer>
		<layer id="119" name="Constant_19967" type="Const" version="opset1">
			<data element_type="f32" shape="144, 1, 1, 1" offset="254692" size="576" />
			<output>
				<port id="0" precision="FP32">
					<dim>144</dim>
					<dim>1</dim>
					<dim>1</dim>
					<dim>1</dim>
				</port>
			</output>
		</layer>
		<layer id="120" name="/encoder/s1/b2/conv2/conv/pre_ops.0/op/FakeQuantize" type="Multiply" version="opset1">
			<data auto_broadcast="numpy" />
			<input>
				<port id="0" precision="FP32">
					<dim>144</dim>
					<dim>72</dim>
					<dim>3</dim>
					<dim>3</dim>
				</port>
				<port id="1" precision="FP32">
					<dim>144</dim>
					<dim>1</dim>
					<dim>1</dim>
					<dim>1</dim>
				</port>
			</input>
			<output>
				<port id="2" precision="FP32" names="/encoder/s1/b2/conv2/conv/pre_ops.0/op/FakeQuantize_output_0">
					<dim>144</dim>
					<dim>72</dim>
					<dim>3</dim>
					<dim>3</dim>
				</port>
			</output>
		</layer>
		<layer id="121" name="Reshape_16794" type="Const" version="opset1">
			<data element_type="f32" shape="144, 1, 1, 1" offset="255268" size="576" />
			<output>
				<port id="0" precision="FP32">
					<dim>144</dim>
					<dim>1</dim>
					<dim>1</dim>
					<dim>1</dim>
				</port>
			</output>
		</layer>
		<layer id="122" name="Multiply_16795" type="Multiply" version="opset1">
			<data auto_broadcast="numpy" />
			<input>
				<port id="0" precision="FP32">
					<dim>144</dim>
					<dim>72</dim>
					<dim>3</dim>
					<dim>3</dim>
				</port>
				<port id="1" precision="FP32">
					<dim>144</dim>
					<dim>1</dim>
					<dim>1</dim>
					<dim>1</dim>
				</port>
			</input>
			<output>
				<port id="2" precision="FP32">
					<dim>144</dim>
					<dim>72</dim>
					<dim>3</dim>
					<dim>3</dim>
				</port>
			</output>
		</layer>
		<layer id="123" name="Constant_709" type="Const" version="opset1">
			<data element_type="i64" shape="1" offset="101360" size="8" />
			<output>
				<port id="0" precision="I64">
					<dim>1</dim>
				</port>
			</output>
		</layer>
		<layer id="124" name="ShapeOf_710" type="ShapeOf" version="opset3">
			<data output_type="i64" />
			<input>
				<port id="0" precision="FP32">
					<dim>144</dim>
					<dim>72</dim>
					<dim>3</dim>
					<dim>3</dim>
				</port>
			</input>
			<output>
				<port id="1" precision="I64">
					<dim>4</dim>
				</port>
			</output>
		</layer>
		<layer id="125" name="Constant_707" type="Const" version="opset1">
			<data element_type="i64" shape="" offset="101368" size="8" />
			<output>
				<port id="0" precision="I64" />
			</output>
		</layer>
		<layer id="126" name="Constant_708" type="Const" version="opset1">
			<data element_type="i64" shape="2" offset="101376" size="16" />
			<output>
				<port id="0" precision="I64">
					<dim>2</dim>
				</port>
			</output>
		</layer>
		<layer id="127" name="VariadicSplit_711" type="VariadicSplit" version="opset1">
			<input>
				<port id="0" precision="I64">
					<dim>4</dim>
				</port>
				<port id="1" precision="I64" />
				<port id="2" precision="I64">
					<dim>2</dim>
				</port>
			</input>
			<output>
				<port id="3" precision="I64">
					<dim>1</dim>
				</port>
				<port id="4" precision="I64">
					<dim>3</dim>
				</port>
			</output>
		</layer>
		<layer id="128" name="Divide_712" type="Divide" version="opset1">
			<data auto_broadcast="numpy" m_pythondiv="true" />
			<input>
				<port id="0" precision="I64">
					<dim>1</dim>
				</port>
				<port id="1" precision="I64">
					<dim>1</dim>
				</port>
			</input>
			<output>
				<port id="2" precision="I64">
					<dim>1</dim>
				</port>
			</output>
		</layer>
		<layer id="129" name="Concat_713" type="Concat" version="opset1">
			<data axis="0" />
			<input>
				<port id="0" precision="I64">
					<dim>1</dim>
				</port>
				<port id="1" precision="I64">
					<dim>1</dim>
				</port>
				<port id="2" precision="I64">
					<dim>3</dim>
				</port>
			</input>
			<output>
				<port id="3" precision="I64">
					<dim>5</dim>
				</port>
			</output>
		</layer>
		<layer id="130" name="Reshape_714" type="Reshape" version="opset1">
			<data special_zero="false" />
			<input>
				<port id="0" precision="FP32">
					<dim>144</dim>
					<dim>72</dim>
					<dim>3</dim>
					<dim>3</dim>
				</port>
				<port id="1" precision="I64">
					<dim>5</dim>
				</port>
			</input>
			<output>
				<port id="2" precision="FP32">
					<dim>2</dim>
					<dim>72</dim>
					<dim>72</dim>
					<dim>3</dim>
					<dim>3</dim>
				</port>
			</output>
		</layer>
		<layer id="131" name="Multiply_16189" type="GroupConvolution" version="opset1">
			<data strides="1, 1" pads_begin="1, 1" pads_end="1, 1" dilations="1, 1" auto_pad="explicit" />
			<input>
				<port id="0" precision="FP32">
					<dim>1</dim>
					<dim>144</dim>
					<dim>112</dim>
					<dim>112</dim>
				</port>
				<port id="1" precision="FP32">
					<dim>2</dim>
					<dim>72</dim>
					<dim>72</dim>
					<dim>3</dim>
					<dim>3</dim>
				</port>
			</input>
			<output>
				<port id="2" precision="FP32" names="/encoder/s1/b2/conv2/conv/Conv_output_0">
					<dim>1</dim>
					<dim>144</dim>
					<dim>112</dim>
					<dim>112</dim>
				</port>
			</output>
		</layer>
		<layer id="132" name="Constant_16194" type="Const" version="opset1">
			<data element_type="f32" shape="1, 144, 1, 1" offset="255844" size="576" />
			<output>
				<port id="0" precision="FP32">
					<dim>1</dim>
					<dim>144</dim>
					<dim>1</dim>
					<dim>1</dim>
				</port>
			</output>
		</layer>
		<layer id="133" name="/encoder/s1/b2/conv2/bn/BatchNormalization" type="Add" version="opset1">
			<data auto_broadcast="numpy" />
			<input>
				<port id="0" precision="FP32">
					<dim>1</dim>
					<dim>144</dim>
					<dim>112</dim>
					<dim>112</dim>
				</port>
				<port id="1" precision="FP32">
					<dim>1</dim>
					<dim>144</dim>
					<dim>1</dim>
					<dim>1</dim>
				</port>
			</input>
			<output>
				<port id="2" precision="FP32" names="/encoder/s1/b2/conv2/bn/BatchNormalization_output_0">
					<dim>1</dim>
					<dim>144</dim>
					<dim>112</dim>
					<dim>112</dim>
				</port>
			</output>
		</layer>
		<layer id="134" name="Constant_17861" type="Const" version="opset1">
			<data element_type="f32" shape="1, 1, 1, 1" offset="0" size="4" />
			<output>
				<port id="0" precision="FP32">
					<dim>1</dim>
					<dim>1</dim>
					<dim>1</dim>
					<dim>1</dim>
				</port>
			</output>
		</layer>
		<layer id="135" name="Constant_17862" type="Const" version="opset1">
			<data element_type="f32" shape="1, 1, 1, 1" offset="256420" size="4" />
			<output>
				<port id="0" precision="FP32">
					<dim>1</dim>
					<dim>1</dim>
					<dim>1</dim>
					<dim>1</dim>
				</port>
			</output>
		</layer>
		<layer id="136" name="Constant_17863" type="Const" version="opset1">
			<data element_type="f32" shape="1, 1, 1, 1" offset="0" size="4" />
			<output>
				<port id="0" precision="FP32">
					<dim>1</dim>
					<dim>1</dim>
					<dim>1</dim>
					<dim>1</dim>
				</port>
			</output>
		</layer>
		<layer id="137" name="Constant_17864" type="Const" version="opset1">
			<data element_type="f32" shape="1, 1, 1, 1" offset="256420" size="4" />
			<output>
				<port id="0" precision="FP32">
					<dim>1</dim>
					<dim>1</dim>
					<dim>1</dim>
					<dim>1</dim>
				</port>
			</output>
		</layer>
		<layer id="138" name="/encoder/s1/b2/conv2/bn/act/DeepLabV3Plus/RegNetEncoder[encoder]/RegStage[s1]/Bottleneck[b2]/ConvNormAct[conv2]/BatchNormAct2d[bn]/ReLU[act]/relu__0|OUTPUT/FakeQuantize" type="FakeQuantize" version="opset1">
			<data levels="256" auto_broadcast="numpy" />
			<input>
				<port id="0" precision="FP32">
					<dim>1</dim>
					<dim>144</dim>
					<dim>112</dim>
					<dim>112</dim>
				</port>
				<port id="1" precision="FP32">
					<dim>1</dim>
					<dim>1</dim>
					<dim>1</dim>
					<dim>1</dim>
				</port>
				<port id="2" precision="FP32">
					<dim>1</dim>
					<dim>1</dim>
					<dim>1</dim>
					<dim>1</dim>
				</port>
				<port id="3" precision="FP32">
					<dim>1</dim>
					<dim>1</dim>
					<dim>1</dim>
					<dim>1</dim>
				</port>
				<port id="4" precision="FP32">
					<dim>1</dim>
					<dim>1</dim>
					<dim>1</dim>
					<dim>1</dim>
				</port>
			</input>
			<output>
				<port id="5" precision="FP32" names="/encoder/s1/b2/conv2/bn/act/DeepLabV3Plus/RegNetEncoder[encoder]/RegStage[s1]/Bottleneck[b2]/ConvNormAct[conv2]/BatchNormAct2d[bn]/ReLU[act]/relu__0|OUTPUT/FakeQuantize_output_0">
					<dim>1</dim>
					<dim>144</dim>
					<dim>112</dim>
					<dim>112</dim>
				</port>
			</output>
		</layer>
		<layer id="139" name="Constant_759" type="Const" version="opset1">
			<data element_type="i64" shape="2" offset="101972" size="16" />
			<output>
				<port id="0" precision="I64">
					<dim>2</dim>
				</port>
			</output>
		</layer>
		<layer id="140" name="/encoder/s1/b2/se/ReduceMean" type="ReduceMean" version="opset1">
			<data keep_dims="true" />
			<input>
				<port id="0" precision="FP32">
					<dim>1</dim>
					<dim>144</dim>
					<dim>112</dim>
					<dim>112</dim>
				</port>
				<port id="1" precision="I64">
					<dim>2</dim>
				</port>
			</input>
			<output>
				<port id="2" precision="FP32" names="/encoder/s1/b2/se/ReduceMean_output_0">
					<dim>1</dim>
					<dim>144</dim>
					<dim>1</dim>
					<dim>1</dim>
				</port>
			</output>
		</layer>
		<layer id="141" name="encoder.s1.b2.se.fc1.weight" type="Const" version="opset1">
			<data element_type="f32" shape="36, 144, 1, 1" offset="256424" size="20736" />
			<output>
				<port id="0" precision="FP32" names="encoder.s1.b2.se.fc1.weight">
					<dim>36</dim>
					<dim>144</dim>
					<dim>1</dim>
					<dim>1</dim>
				</port>
			</output>
		</layer>
		<layer id="142" name="/encoder/s1/b2/se/fc1/Conv/WithoutBiases" type="Convolution" version="opset1">
			<data strides="1, 1" dilations="1, 1" pads_begin="0, 0" pads_end="0, 0" auto_pad="explicit" />
			<input>
				<port id="0" precision="FP32">
					<dim>1</dim>
					<dim>144</dim>
					<dim>1</dim>
					<dim>1</dim>
				</port>
				<port id="1" precision="FP32">
					<dim>36</dim>
					<dim>144</dim>
					<dim>1</dim>
					<dim>1</dim>
				</port>
			</input>
			<output>
				<port id="2" precision="FP32">
					<dim>1</dim>
					<dim>36</dim>
					<dim>1</dim>
					<dim>1</dim>
				</port>
			</output>
		</layer>
		<layer id="143" name="Reshape_773" type="Const" version="opset1">
			<data element_type="f32" shape="1, 36, 1, 1" offset="277160" size="144" />
			<output>
				<port id="0" precision="FP32">
					<dim>1</dim>
					<dim>36</dim>
					<dim>1</dim>
					<dim>1</dim>
				</port>
			</output>
		</layer>
		<layer id="144" name="/encoder/s1/b2/se/fc1/Conv" type="Add" version="opset1">
			<data auto_broadcast="numpy" />
			<input>
				<port id="0" precision="FP32">
					<dim>1</dim>
					<dim>36</dim>
					<dim>1</dim>
					<dim>1</dim>
				</port>
				<port id="1" precision="FP32">
					<dim>1</dim>
					<dim>36</dim>
					<dim>1</dim>
					<dim>1</dim>
				</port>
			</input>
			<output>
				<port id="2" precision="FP32" names="/encoder/s1/b2/se/fc1/Conv_output_0">
					<dim>1</dim>
					<dim>36</dim>
					<dim>1</dim>
					<dim>1</dim>
				</port>
			</output>
		</layer>
		<layer id="145" name="/encoder/s1/b2/se/act/Relu" type="ReLU" version="opset1">
			<input>
				<port id="0" precision="FP32">
					<dim>1</dim>
					<dim>36</dim>
					<dim>1</dim>
					<dim>1</dim>
				</port>
			</input>
			<output>
				<port id="1" precision="FP32" names="/encoder/s1/b2/se/act/Relu_output_0">
					<dim>1</dim>
					<dim>36</dim>
					<dim>1</dim>
					<dim>1</dim>
				</port>
			</output>
		</layer>
		<layer id="146" name="encoder.s1.b2.se.fc2.weight" type="Const" version="opset1">
			<data element_type="f32" shape="144, 36, 1, 1" offset="277304" size="20736" />
			<output>
				<port id="0" precision="FP32" names="encoder.s1.b2.se.fc2.weight">
					<dim>144</dim>
					<dim>36</dim>
					<dim>1</dim>
					<dim>1</dim>
				</port>
			</output>
		</layer>
		<layer id="147" name="/encoder/s1/b2/se/fc2/Conv/WithoutBiases" type="Convolution" version="opset1">
			<data strides="1, 1" dilations="1, 1" pads_begin="0, 0" pads_end="0, 0" auto_pad="explicit" />
			<input>
				<port id="0" precision="FP32">
					<dim>1</dim>
					<dim>36</dim>
					<dim>1</dim>
					<dim>1</dim>
				</port>
				<port id="1" precision="FP32">
					<dim>144</dim>
					<dim>36</dim>
					<dim>1</dim>
					<dim>1</dim>
				</port>
			</input>
			<output>
				<port id="2" precision="FP32">
					<dim>1</dim>
					<dim>144</dim>
					<dim>1</dim>
					<dim>1</dim>
				</port>
			</output>
		</layer>
		<layer id="148" name="Reshape_790" type="Const" version="opset1">
			<data element_type="f32" shape="1, 144, 1, 1" offset="298040" size="576" />
			<output>
				<port id="0" precision="FP32">
					<dim>1</dim>
					<dim>144</dim>
					<dim>1</dim>
					<dim>1</dim>
				</port>
			</output>
		</layer>
		<layer id="149" name="/encoder/s1/b2/se/fc2/Conv" type="Add" version="opset1">
			<data auto_broadcast="numpy" />
			<input>
				<port id="0" precision="FP32">
					<dim>1</dim>
					<dim>144</dim>
					<dim>1</dim>
					<dim>1</dim>
				</port>
				<port id="1" precision="FP32">
					<dim>1</dim>
					<dim>144</dim>
					<dim>1</dim>
					<dim>1</dim>
				</port>
			</input>
			<output>
				<port id="2" precision="FP32" names="/encoder/s1/b2/se/fc2/Conv_output_0">
					<dim>1</dim>
					<dim>144</dim>
					<dim>1</dim>
					<dim>1</dim>
				</port>
			</output>
		</layer>
		<layer id="150" name="/encoder/s1/b2/se/gate/Sigmoid" type="Sigmoid" version="opset1">
			<input>
				<port id="0" precision="FP32">
					<dim>1</dim>
					<dim>144</dim>
					<dim>1</dim>
					<dim>1</dim>
				</port>
			</input>
			<output>
				<port id="1" precision="FP32" names="/encoder/s1/b2/se/gate/Sigmoid_output_0">
					<dim>1</dim>
					<dim>144</dim>
					<dim>1</dim>
					<dim>1</dim>
				</port>
			</output>
		</layer>
		<layer id="151" name="Constant_17865" type="Const" version="opset1">
			<data element_type="f32" shape="1, 1, 1, 1" offset="0" size="4" />
			<output>
				<port id="0" precision="FP32">
					<dim>1</dim>
					<dim>1</dim>
					<dim>1</dim>
					<dim>1</dim>
				</port>
			</output>
		</layer>
		<layer id="152" name="Constant_17866" type="Const" version="opset1">
			<data element_type="f32" shape="1, 1, 1, 1" offset="298616" size="4" />
			<output>
				<port id="0" precision="FP32">
					<dim>1</dim>
					<dim>1</dim>
					<dim>1</dim>
					<dim>1</dim>
				</port>
			</output>
		</layer>
		<layer id="153" name="Constant_17867" type="Const" version="opset1">
			<data element_type="f32" shape="1, 1, 1, 1" offset="0" size="4" />
			<output>
				<port id="0" precision="FP32">
					<dim>1</dim>
					<dim>1</dim>
					<dim>1</dim>
					<dim>1</dim>
				</port>
			</output>
		</layer>
		<layer id="154" name="Constant_17868" type="Const" version="opset1">
			<data element_type="f32" shape="1, 1, 1, 1" offset="298616" size="4" />
			<output>
				<port id="0" precision="FP32">
					<dim>1</dim>
					<dim>1</dim>
					<dim>1</dim>
					<dim>1</dim>
				</port>
			</output>
		</layer>
		<layer id="155" name="/encoder/s1/b2/se/gate/DeepLabV3Plus/RegNetEncoder[encoder]/RegStage[s1]/Bottleneck[b2]/SEModule[se]/Sigmoid[gate]/sigmoid_0|OUTPUT/FakeQuantize" type="FakeQuantize" version="opset1">
			<data levels="256" auto_broadcast="numpy" />
			<input>
				<port id="0" precision="FP32">
					<dim>1</dim>
					<dim>144</dim>
					<dim>1</dim>
					<dim>1</dim>
				</port>
				<port id="1" precision="FP32">
					<dim>1</dim>
					<dim>1</dim>
					<dim>1</dim>
					<dim>1</dim>
				</port>
				<port id="2" precision="FP32">
					<dim>1</dim>
					<dim>1</dim>
					<dim>1</dim>
					<dim>1</dim>
				</port>
				<port id="3" precision="FP32">
					<dim>1</dim>
					<dim>1</dim>
					<dim>1</dim>
					<dim>1</dim>
				</port>
				<port id="4" precision="FP32">
					<dim>1</dim>
					<dim>1</dim>
					<dim>1</dim>
					<dim>1</dim>
				</port>
			</input>
			<output>
				<port id="5" precision="FP32" names="/encoder/s1/b2/se/gate/DeepLabV3Plus/RegNetEncoder[encoder]/RegStage[s1]/Bottleneck[b2]/SEModule[se]/Sigmoid[gate]/sigmoid_0|OUTPUT/FakeQuantize_output_0">
					<dim>1</dim>
					<dim>144</dim>
					<dim>1</dim>
					<dim>1</dim>
				</port>
			</output>
		</layer>
		<layer id="156" name="/encoder/s1/b2/se/Mul" type="Multiply" version="opset1">
			<data auto_broadcast="numpy" />
			<input>
				<port id="0" precision="FP32">
					<dim>1</dim>
					<dim>144</dim>
					<dim>112</dim>
					<dim>112</dim>
				</port>
				<port id="1" precision="FP32">
					<dim>1</dim>
					<dim>144</dim>
					<dim>1</dim>
					<dim>1</dim>
				</port>
			</input>
			<output>
				<port id="2" precision="FP32" names="/encoder/s1/b2/se/Mul_output_0">
					<dim>1</dim>
					<dim>144</dim>
					<dim>112</dim>
					<dim>112</dim>
				</port>
			</output>
		</layer>
		<layer id="157" name="Constant_17869" type="Const" version="opset1">
			<data element_type="f32" shape="1, 1, 1, 1" offset="0" size="4" />
			<output>
				<port id="0" precision="FP32">
					<dim>1</dim>
					<dim>1</dim>
					<dim>1</dim>
					<dim>1</dim>
				</port>
			</output>
		</layer>
		<layer id="158" name="Constant_17870" type="Const" version="opset1">
			<data element_type="f32" shape="1, 1, 1, 1" offset="298620" size="4" />
			<output>
				<port id="0" precision="FP32">
					<dim>1</dim>
					<dim>1</dim>
					<dim>1</dim>
					<dim>1</dim>
				</port>
			</output>
		</layer>
		<layer id="159" name="Constant_17871" type="Const" version="opset1">
			<data element_type="f32" shape="1, 1, 1, 1" offset="0" size="4" />
			<output>
				<port id="0" precision="FP32">
					<dim>1</dim>
					<dim>1</dim>
					<dim>1</dim>
					<dim>1</dim>
				</port>
			</output>
		</layer>
		<layer id="160" name="Constant_17872" type="Const" version="opset1">
			<data element_type="f32" shape="1, 1, 1, 1" offset="298620" size="4" />
			<output>
				<port id="0" precision="FP32">
					<dim>1</dim>
					<dim>1</dim>
					<dim>1</dim>
					<dim>1</dim>
				</port>
			</output>
		</layer>
		<layer id="161" name="/encoder/s1/b2/se/DeepLabV3Plus/RegNetEncoder[encoder]/RegStage[s1]/Bottleneck[b2]/SEModule[se]/__mul___0|OUTPUT/FakeQuantize" type="FakeQuantize" version="opset1">
			<data levels="256" auto_broadcast="numpy" />
			<input>
				<port id="0" precision="FP32">
					<dim>1</dim>
					<dim>144</dim>
					<dim>112</dim>
					<dim>112</dim>
				</port>
				<port id="1" precision="FP32">
					<dim>1</dim>
					<dim>1</dim>
					<dim>1</dim>
					<dim>1</dim>
				</port>
				<port id="2" precision="FP32">
					<dim>1</dim>
					<dim>1</dim>
					<dim>1</dim>
					<dim>1</dim>
				</port>
				<port id="3" precision="FP32">
					<dim>1</dim>
					<dim>1</dim>
					<dim>1</dim>
					<dim>1</dim>
				</port>
				<port id="4" precision="FP32">
					<dim>1</dim>
					<dim>1</dim>
					<dim>1</dim>
					<dim>1</dim>
				</port>
			</input>
			<output>
				<port id="5" precision="FP32" names="/encoder/s1/b2/se/DeepLabV3Plus/RegNetEncoder[encoder]/RegStage[s1]/Bottleneck[b2]/SEModule[se]/__mul___0|OUTPUT/FakeQuantize_output_0">
					<dim>1</dim>
					<dim>144</dim>
					<dim>112</dim>
					<dim>112</dim>
				</port>
			</output>
		</layer>
		<layer id="162" name="Constant_19969" type="Const" version="opset1">
			<data element_type="i8" shape="144, 144, 1, 1" offset="298624" size="20736" />
			<output>
				<port id="0" precision="I8">
					<dim>144</dim>
					<dim>144</dim>
					<dim>1</dim>
					<dim>1</dim>
				</port>
			</output>
		</layer>
		<layer id="163" name="Convert_19970" type="Convert" version="opset1">
			<data destination_type="f32" />
			<input>
				<port id="0" precision="I8">
					<dim>144</dim>
					<dim>144</dim>
					<dim>1</dim>
					<dim>1</dim>
				</port>
			</input>
			<output>
				<port id="1" precision="FP32">
					<dim>144</dim>
					<dim>144</dim>
					<dim>1</dim>
					<dim>1</dim>
				</port>
			</output>
		</layer>
		<layer id="164" name="Constant_19971" type="Const" version="opset1">
			<data element_type="f32" shape="144, 1, 1, 1" offset="319360" size="576" />
			<output>
				<port id="0" precision="FP32">
					<dim>144</dim>
					<dim>1</dim>
					<dim>1</dim>
					<dim>1</dim>
				</port>
			</output>
		</layer>
		<layer id="165" name="Multiply_16798" type="Multiply" version="opset1">
			<data auto_broadcast="numpy" />
			<input>
				<port id="0" precision="FP32">
					<dim>144</dim>
					<dim>144</dim>
					<dim>1</dim>
					<dim>1</dim>
				</port>
				<port id="1" precision="FP32">
					<dim>144</dim>
					<dim>1</dim>
					<dim>1</dim>
					<dim>1</dim>
				</port>
			</input>
			<output>
				<port id="2" precision="FP32">
					<dim>144</dim>
					<dim>144</dim>
					<dim>1</dim>
					<dim>1</dim>
				</port>
			</output>
		</layer>
		<layer id="166" name="Multiply_16196" type="Convolution" version="opset1">
			<data strides="1, 1" dilations="1, 1" pads_begin="0, 0" pads_end="0, 0" auto_pad="explicit" />
			<input>
				<port id="0" precision="FP32">
					<dim>1</dim>
					<dim>144</dim>
					<dim>112</dim>
					<dim>112</dim>
				</port>
				<port id="1" precision="FP32">
					<dim>144</dim>
					<dim>144</dim>
					<dim>1</dim>
					<dim>1</dim>
				</port>
			</input>
			<output>
				<port id="2" precision="FP32">
					<dim>1</dim>
					<dim>144</dim>
					<dim>112</dim>
					<dim>112</dim>
				</port>
			</output>
		</layer>
		<layer id="167" name="Constant_16201" type="Const" version="opset1">
			<data element_type="f32" shape="1, 144, 1, 1" offset="319936" size="576" />
			<output>
				<port id="0" precision="FP32">
					<dim>1</dim>
					<dim>144</dim>
					<dim>1</dim>
					<dim>1</dim>
				</port>
			</output>
		</layer>
		<layer id="168" name="/encoder/s1/b2/conv3/bn/BatchNormalization" type="Add" version="opset1">
			<data auto_broadcast="numpy" />
			<input>
				<port id="0" precision="FP32">
					<dim>1</dim>
					<dim>144</dim>
					<dim>112</dim>
					<dim>112</dim>
				</port>
				<port id="1" precision="FP32">
					<dim>1</dim>
					<dim>144</dim>
					<dim>1</dim>
					<dim>1</dim>
				</port>
			</input>
			<output>
				<port id="2" precision="FP32" names="/encoder/s1/b2/conv3/bn/BatchNormalization_output_0">
					<dim>1</dim>
					<dim>144</dim>
					<dim>112</dim>
					<dim>112</dim>
				</port>
			</output>
		</layer>
		<layer id="169" name="Constant_17873" type="Const" version="opset1">
			<data element_type="f32" shape="1, 1, 1, 1" offset="320512" size="4" />
			<output>
				<port id="0" precision="FP32">
					<dim>1</dim>
					<dim>1</dim>
					<dim>1</dim>
					<dim>1</dim>
				</port>
			</output>
		</layer>
		<layer id="170" name="Constant_17874" type="Const" version="opset1">
			<data element_type="f32" shape="1, 1, 1, 1" offset="320516" size="4" />
			<output>
				<port id="0" precision="FP32">
					<dim>1</dim>
					<dim>1</dim>
					<dim>1</dim>
					<dim>1</dim>
				</port>
			</output>
		</layer>
		<layer id="171" name="Constant_17875" type="Const" version="opset1">
			<data element_type="f32" shape="1, 1, 1, 1" offset="320512" size="4" />
			<output>
				<port id="0" precision="FP32">
					<dim>1</dim>
					<dim>1</dim>
					<dim>1</dim>
					<dim>1</dim>
				</port>
			</output>
		</layer>
		<layer id="172" name="Constant_17876" type="Const" version="opset1">
			<data element_type="f32" shape="1, 1, 1, 1" offset="320516" size="4" />
			<output>
				<port id="0" precision="FP32">
					<dim>1</dim>
					<dim>1</dim>
					<dim>1</dim>
					<dim>1</dim>
				</port>
			</output>
		</layer>
		<layer id="173" name="/encoder/s1/b2/conv3/bn/DeepLabV3Plus/RegNetEncoder[encoder]/RegStage[s1]/Bottleneck[b2]/ConvNormAct[conv3]/BatchNormAct2d[bn]/batch_norm_0|OUTPUT/FakeQuantize" type="FakeQuantize" version="opset1">
			<data levels="256" auto_broadcast="numpy" />
			<input>
				<port id="0" precision="FP32">
					<dim>1</dim>
					<dim>144</dim>
					<dim>112</dim>
					<dim>112</dim>
				</port>
				<port id="1" precision="FP32">
					<dim>1</dim>
					<dim>1</dim>
					<dim>1</dim>
					<dim>1</dim>
				</port>
				<port id="2" precision="FP32">
					<dim>1</dim>
					<dim>1</dim>
					<dim>1</dim>
					<dim>1</dim>
				</port>
				<port id="3" precision="FP32">
					<dim>1</dim>
					<dim>1</dim>
					<dim>1</dim>
					<dim>1</dim>
				</port>
				<port id="4" precision="FP32">
					<dim>1</dim>
					<dim>1</dim>
					<dim>1</dim>
					<dim>1</dim>
				</port>
			</input>
			<output>
				<port id="5" precision="FP32" names="/encoder/s1/b2/conv3/bn/DeepLabV3Plus/RegNetEncoder[encoder]/RegStage[s1]/Bottleneck[b2]/ConvNormAct[conv3]/BatchNormAct2d[bn]/batch_norm_0|OUTPUT/FakeQuantize_output_0">
					<dim>1</dim>
					<dim>144</dim>
					<dim>112</dim>
					<dim>112</dim>
				</port>
			</output>
		</layer>
		<layer id="174" name="/encoder/s1/b2/Add" type="Add" version="opset1">
			<data auto_broadcast="numpy" />
			<input>
				<port id="0" precision="FP32">
					<dim>1</dim>
					<dim>144</dim>
					<dim>112</dim>
					<dim>112</dim>
				</port>
				<port id="1" precision="FP32">
					<dim>1</dim>
					<dim>144</dim>
					<dim>112</dim>
					<dim>112</dim>
				</port>
			</input>
			<output>
				<port id="2" precision="FP32" names="/encoder/s1/b2/Add_output_0">
					<dim>1</dim>
					<dim>144</dim>
					<dim>112</dim>
					<dim>112</dim>
				</port>
			</output>
		</layer>
		<layer id="175" name="Constant_17877" type="Const" version="opset1">
			<data element_type="f32" shape="1, 1, 1, 1" offset="0" size="4" />
			<output>
				<port id="0" precision="FP32">
					<dim>1</dim>
					<dim>1</dim>
					<dim>1</dim>
					<dim>1</dim>
				</port>
			</output>
		</layer>
		<layer id="176" name="Constant_17878" type="Const" version="opset1">
			<data element_type="f32" shape="1, 1, 1, 1" offset="320520" size="4" />
			<output>
				<port id="0" precision="FP32">
					<dim>1</dim>
					<dim>1</dim>
					<dim>1</dim>
					<dim>1</dim>
				</port>
			</output>
		</layer>
		<layer id="177" name="Constant_17879" type="Const" version="opset1">
			<data element_type="f32" shape="1, 1, 1, 1" offset="0" size="4" />
			<output>
				<port id="0" precision="FP32">
					<dim>1</dim>
					<dim>1</dim>
					<dim>1</dim>
					<dim>1</dim>
				</port>
			</output>
		</layer>
		<layer id="178" name="Constant_17880" type="Const" version="opset1">
			<data element_type="f32" shape="1, 1, 1, 1" offset="320520" size="4" />
			<output>
				<port id="0" precision="FP32">
					<dim>1</dim>
					<dim>1</dim>
					<dim>1</dim>
					<dim>1</dim>
				</port>
			</output>
		</layer>
		<layer id="179" name="/encoder/s1/b2/act3/DeepLabV3Plus/RegNetEncoder[encoder]/RegStage[s1]/Bottleneck[b2]/ReLU[act3]/relu_0|OUTPUT/FakeQuantize" type="FakeQuantize" version="opset1">
			<data levels="256" auto_broadcast="numpy" />
			<input>
				<port id="0" precision="FP32">
					<dim>1</dim>
					<dim>144</dim>
					<dim>112</dim>
					<dim>112</dim>
				</port>
				<port id="1" precision="FP32">
					<dim>1</dim>
					<dim>1</dim>
					<dim>1</dim>
					<dim>1</dim>
				</port>
				<port id="2" precision="FP32">
					<dim>1</dim>
					<dim>1</dim>
					<dim>1</dim>
					<dim>1</dim>
				</port>
				<port id="3" precision="FP32">
					<dim>1</dim>
					<dim>1</dim>
					<dim>1</dim>
					<dim>1</dim>
				</port>
				<port id="4" precision="FP32">
					<dim>1</dim>
					<dim>1</dim>
					<dim>1</dim>
					<dim>1</dim>
				</port>
			</input>
			<output>
				<port id="5" precision="FP32" names="/encoder/s1/b2/act3/DeepLabV3Plus/RegNetEncoder[encoder]/RegStage[s1]/Bottleneck[b2]/ReLU[act3]/relu_0|OUTPUT/FakeQuantize_output_0">
					<dim>1</dim>
					<dim>144</dim>
					<dim>112</dim>
					<dim>112</dim>
				</port>
			</output>
		</layer>
		<layer id="180" name="Constant_19973" type="Const" version="opset1">
			<data element_type="i8" shape="288, 144, 1, 1" offset="320524" size="41472" />
			<output>
				<port id="0" precision="I8">
					<dim>288</dim>
					<dim>144</dim>
					<dim>1</dim>
					<dim>1</dim>
				</port>
			</output>
		</layer>
		<layer id="181" name="Convert_19974" type="Convert" version="opset1">
			<data destination_type="f32" />
			<input>
				<port id="0" precision="I8">
					<dim>288</dim>
					<dim>144</dim>
					<dim>1</dim>
					<dim>1</dim>
				</port>
			</input>
			<output>
				<port id="1" precision="FP32">
					<dim>288</dim>
					<dim>144</dim>
					<dim>1</dim>
					<dim>1</dim>
				</port>
			</output>
		</layer>
		<layer id="182" name="Constant_19975" type="Const" version="opset1">
			<data element_type="f32" shape="288, 1, 1, 1" offset="361996" size="1152" />
			<output>
				<port id="0" precision="FP32">
					<dim>288</dim>
					<dim>1</dim>
					<dim>1</dim>
					<dim>1</dim>
				</port>
			</output>
		</layer>
		<layer id="183" name="Multiply_16802" type="Multiply" version="opset1">
			<data auto_broadcast="numpy" />
			<input>
				<port id="0" precision="FP32">
					<dim>288</dim>
					<dim>144</dim>
					<dim>1</dim>
					<dim>1</dim>
				</port>
				<port id="1" precision="FP32">
					<dim>288</dim>
					<dim>1</dim>
					<dim>1</dim>
					<dim>1</dim>
				</port>
			</input>
			<output>
				<port id="2" precision="FP32">
					<dim>288</dim>
					<dim>144</dim>
					<dim>1</dim>
					<dim>1</dim>
				</port>
			</output>
		</layer>
		<layer id="184" name="Multiply_16203" type="Convolution" version="opset1">
			<data strides="1, 1" dilations="1, 1" pads_begin="0, 0" pads_end="0, 0" auto_pad="explicit" />
			<input>
				<port id="0" precision="FP32">
					<dim>1</dim>
					<dim>144</dim>
					<dim>112</dim>
					<dim>112</dim>
				</port>
				<port id="1" precision="FP32">
					<dim>288</dim>
					<dim>144</dim>
					<dim>1</dim>
					<dim>1</dim>
				</port>
			</input>
			<output>
				<port id="2" precision="FP32">
					<dim>1</dim>
					<dim>288</dim>
					<dim>112</dim>
					<dim>112</dim>
				</port>
			</output>
		</layer>
		<layer id="185" name="Constant_16208" type="Const" version="opset1">
			<data element_type="f32" shape="1, 288, 1, 1" offset="363148" size="1152" />
			<output>
				<port id="0" precision="FP32">
					<dim>1</dim>
					<dim>288</dim>
					<dim>1</dim>
					<dim>1</dim>
				</port>
			</output>
		</layer>
		<layer id="186" name="/encoder/s2/b1/conv1/bn/BatchNormalization" type="Add" version="opset1">
			<data auto_broadcast="numpy" />
			<input>
				<port id="0" precision="FP32">
					<dim>1</dim>
					<dim>288</dim>
					<dim>112</dim>
					<dim>112</dim>
				</port>
				<port id="1" precision="FP32">
					<dim>1</dim>
					<dim>288</dim>
					<dim>1</dim>
					<dim>1</dim>
				</port>
			</input>
			<output>
				<port id="2" precision="FP32" names="/encoder/s2/b1/conv1/bn/BatchNormalization_output_0">
					<dim>1</dim>
					<dim>288</dim>
					<dim>112</dim>
					<dim>112</dim>
				</port>
			</output>
		</layer>
		<layer id="187" name="Constant_17881" type="Const" version="opset1">
			<data element_type="f32" shape="1, 1, 1, 1" offset="0" size="4" />
			<output>
				<port id="0" precision="FP32">
					<dim>1</dim>
					<dim>1</dim>
					<dim>1</dim>
					<dim>1</dim>
				</port>
			</output>
		</layer>
		<layer id="188" name="Constant_17882" type="Const" version="opset1">
			<data element_type="f32" shape="1, 1, 1, 1" offset="364300" size="4" />
			<output>
				<port id="0" precision="FP32">
					<dim>1</dim>
					<dim>1</dim>
					<dim>1</dim>
					<dim>1</dim>
				</port>
			</output>
		</layer>
		<layer id="189" name="Constant_17883" type="Const" version="opset1">
			<data element_type="f32" shape="1, 1, 1, 1" offset="0" size="4" />
			<output>
				<port id="0" precision="FP32">
					<dim>1</dim>
					<dim>1</dim>
					<dim>1</dim>
					<dim>1</dim>
				</port>
			</output>
		</layer>
		<layer id="190" name="Constant_17884" type="Const" version="opset1">
			<data element_type="f32" shape="1, 1, 1, 1" offset="364300" size="4" />
			<output>
				<port id="0" precision="FP32">
					<dim>1</dim>
					<dim>1</dim>
					<dim>1</dim>
					<dim>1</dim>
				</port>
			</output>
		</layer>
		<layer id="191" name="/encoder/s2/b1/conv1/bn/act/DeepLabV3Plus/RegNetEncoder[encoder]/RegStage[s2]/Bottleneck[b1]/ConvNormAct[conv1]/BatchNormAct2d[bn]/ReLU[act]/relu__0|OUTPUT/FakeQuantize" type="FakeQuantize" version="opset1">
			<data levels="256" auto_broadcast="numpy" />
			<input>
				<port id="0" precision="FP32">
					<dim>1</dim>
					<dim>288</dim>
					<dim>112</dim>
					<dim>112</dim>
				</port>
				<port id="1" precision="FP32">
					<dim>1</dim>
					<dim>1</dim>
					<dim>1</dim>
					<dim>1</dim>
				</port>
				<port id="2" precision="FP32">
					<dim>1</dim>
					<dim>1</dim>
					<dim>1</dim>
					<dim>1</dim>
				</port>
				<port id="3" precision="FP32">
					<dim>1</dim>
					<dim>1</dim>
					<dim>1</dim>
					<dim>1</dim>
				</port>
				<port id="4" precision="FP32">
					<dim>1</dim>
					<dim>1</dim>
					<dim>1</dim>
					<dim>1</dim>
				</port>
			</input>
			<output>
				<port id="5" precision="FP32" names="/encoder/s2/b1/conv1/bn/act/DeepLabV3Plus/RegNetEncoder[encoder]/RegStage[s2]/Bottleneck[b1]/ConvNormAct[conv1]/BatchNormAct2d[bn]/ReLU[act]/relu__0|OUTPUT/FakeQuantize_output_0">
					<dim>1</dim>
					<dim>288</dim>
					<dim>112</dim>
					<dim>112</dim>
				</port>
			</output>
		</layer>
		<layer id="192" name="Constant_19977" type="Const" version="opset1">
			<data element_type="i8" shape="288, 72, 3, 3" offset="364304" size="186624" />
			<output>
				<port id="0" precision="I8">
					<dim>288</dim>
					<dim>72</dim>
					<dim>3</dim>
					<dim>3</dim>
				</port>
			</output>
		</layer>
		<layer id="193" name="Convert_19978" type="Convert" version="opset1">
			<data destination_type="f32" />
			<input>
				<port id="0" precision="I8">
					<dim>288</dim>
					<dim>72</dim>
					<dim>3</dim>
					<dim>3</dim>
				</port>
			</input>
			<output>
				<port id="1" precision="FP32">
					<dim>288</dim>
					<dim>72</dim>
					<dim>3</dim>
					<dim>3</dim>
				</port>
			</output>
		</layer>
		<layer id="194" name="Constant_19979" type="Const" version="opset1">
			<data element_type="f32" shape="288, 1, 1, 1" offset="550928" size="1152" />
			<output>
				<port id="0" precision="FP32">
					<dim>288</dim>
					<dim>1</dim>
					<dim>1</dim>
					<dim>1</dim>
				</port>
			</output>
		</layer>
		<layer id="195" name="/encoder/s2/b1/conv2/conv/pre_ops.0/op/FakeQuantize" type="Multiply" version="opset1">
			<data auto_broadcast="numpy" />
			<input>
				<port id="0" precision="FP32">
					<dim>288</dim>
					<dim>72</dim>
					<dim>3</dim>
					<dim>3</dim>
				</port>
				<port id="1" precision="FP32">
					<dim>288</dim>
					<dim>1</dim>
					<dim>1</dim>
					<dim>1</dim>
				</port>
			</input>
			<output>
				<port id="2" precision="FP32" names="/encoder/s2/b1/conv2/conv/pre_ops.0/op/FakeQuantize_output_0">
					<dim>288</dim>
					<dim>72</dim>
					<dim>3</dim>
					<dim>3</dim>
				</port>
			</output>
		</layer>
		<layer id="196" name="Reshape_16805" type="Const" version="opset1">
			<data element_type="f32" shape="288, 1, 1, 1" offset="552080" size="1152" />
			<output>
				<port id="0" precision="FP32">
					<dim>288</dim>
					<dim>1</dim>
					<dim>1</dim>
					<dim>1</dim>
				</port>
			</output>
		</layer>
		<layer id="197" name="Multiply_16806" type="Multiply" version="opset1">
			<data auto_broadcast="numpy" />
			<input>
				<port id="0" precision="FP32">
					<dim>288</dim>
					<dim>72</dim>
					<dim>3</dim>
					<dim>3</dim>
				</port>
				<port id="1" precision="FP32">
					<dim>288</dim>
					<dim>1</dim>
					<dim>1</dim>
					<dim>1</dim>
				</port>
			</input>
			<output>
				<port id="2" precision="FP32">
					<dim>288</dim>
					<dim>72</dim>
					<dim>3</dim>
					<dim>3</dim>
				</port>
			</output>
		</layer>
		<layer id="198" name="Constant_828" type="Const" version="opset1">
			<data element_type="i64" shape="1" offset="553232" size="8" />
			<output>
				<port id="0" precision="I64">
					<dim>1</dim>
				</port>
			</output>
		</layer>
		<layer id="199" name="ShapeOf_829" type="ShapeOf" version="opset3">
			<data output_type="i64" />
			<input>
				<port id="0" precision="FP32">
					<dim>288</dim>
					<dim>72</dim>
					<dim>3</dim>
					<dim>3</dim>
				</port>
			</input>
			<output>
				<port id="1" precision="I64">
					<dim>4</dim>
				</port>
			</output>
		</layer>
		<layer id="200" name="Constant_826" type="Const" version="opset1">
			<data element_type="i64" shape="" offset="101368" size="8" />
			<output>
				<port id="0" precision="I64" />
			</output>
		</layer>
		<layer id="201" name="Constant_827" type="Const" version="opset1">
			<data element_type="i64" shape="2" offset="101376" size="16" />
			<output>
				<port id="0" precision="I64">
					<dim>2</dim>
				</port>
			</output>
		</layer>
		<layer id="202" name="VariadicSplit_830" type="VariadicSplit" version="opset1">
			<input>
				<port id="0" precision="I64">
					<dim>4</dim>
				</port>
				<port id="1" precision="I64" />
				<port id="2" precision="I64">
					<dim>2</dim>
				</port>
			</input>
			<output>
				<port id="3" precision="I64">
					<dim>1</dim>
				</port>
				<port id="4" precision="I64">
					<dim>3</dim>
				</port>
			</output>
		</layer>
		<layer id="203" name="Divide_831" type="Divide" version="opset1">
			<data auto_broadcast="numpy" m_pythondiv="true" />
			<input>
				<port id="0" precision="I64">
					<dim>1</dim>
				</port>
				<port id="1" precision="I64">
					<dim>1</dim>
				</port>
			</input>
			<output>
				<port id="2" precision="I64">
					<dim>1</dim>
				</port>
			</output>
		</layer>
		<layer id="204" name="Concat_832" type="Concat" version="opset1">
			<data axis="0" />
			<input>
				<port id="0" precision="I64">
					<dim>1</dim>
				</port>
				<port id="1" precision="I64">
					<dim>1</dim>
				</port>
				<port id="2" precision="I64">
					<dim>3</dim>
				</port>
			</input>
			<output>
				<port id="3" precision="I64">
					<dim>5</dim>
				</port>
			</output>
		</layer>
		<layer id="205" name="Reshape_833" type="Reshape" version="opset1">
			<data special_zero="false" />
			<input>
				<port id="0" precision="FP32">
					<dim>288</dim>
					<dim>72</dim>
					<dim>3</dim>
					<dim>3</dim>
				</port>
				<port id="1" precision="I64">
					<dim>5</dim>
				</port>
			</input>
			<output>
				<port id="2" precision="FP32">
					<dim>4</dim>
					<dim>72</dim>
					<dim>72</dim>
					<dim>3</dim>
					<dim>3</dim>
				</port>
			</output>
		</layer>
		<layer id="206" name="Multiply_16210" type="GroupConvolution" version="opset1">
			<data strides="2, 2" pads_begin="1, 1" pads_end="1, 1" dilations="1, 1" auto_pad="explicit" />
			<input>
				<port id="0" precision="FP32">
					<dim>1</dim>
					<dim>288</dim>
					<dim>112</dim>
					<dim>112</dim>
				</port>
				<port id="1" precision="FP32">
					<dim>4</dim>
					<dim>72</dim>
					<dim>72</dim>
					<dim>3</dim>
					<dim>3</dim>
				</port>
			</input>
			<output>
				<port id="2" precision="FP32" names="/encoder/s2/b1/conv2/conv/Conv_output_0">
					<dim>1</dim>
					<dim>288</dim>
					<dim>56</dim>
					<dim>56</dim>
				</port>
			</output>
		</layer>
		<layer id="207" name="Constant_16215" type="Const" version="opset1">
			<data element_type="f32" shape="1, 288, 1, 1" offset="553240" size="1152" />
			<output>
				<port id="0" precision="FP32">
					<dim>1</dim>
					<dim>288</dim>
					<dim>1</dim>
					<dim>1</dim>
				</port>
			</output>
		</layer>
		<layer id="208" name="/encoder/s2/b1/conv2/bn/BatchNormalization" type="Add" version="opset1">
			<data auto_broadcast="numpy" />
			<input>
				<port id="0" precision="FP32">
					<dim>1</dim>
					<dim>288</dim>
					<dim>56</dim>
					<dim>56</dim>
				</port>
				<port id="1" precision="FP32">
					<dim>1</dim>
					<dim>288</dim>
					<dim>1</dim>
					<dim>1</dim>
				</port>
			</input>
			<output>
				<port id="2" precision="FP32" names="/encoder/s2/b1/conv2/bn/BatchNormalization_output_0">
					<dim>1</dim>
					<dim>288</dim>
					<dim>56</dim>
					<dim>56</dim>
				</port>
			</output>
		</layer>
		<layer id="209" name="Constant_17885" type="Const" version="opset1">
			<data element_type="f32" shape="1, 1, 1, 1" offset="0" size="4" />
			<output>
				<port id="0" precision="FP32">
					<dim>1</dim>
					<dim>1</dim>
					<dim>1</dim>
					<dim>1</dim>
				</port>
			</output>
		</layer>
		<layer id="210" name="Constant_17886" type="Const" version="opset1">
			<data element_type="f32" shape="1, 1, 1, 1" offset="554392" size="4" />
			<output>
				<port id="0" precision="FP32">
					<dim>1</dim>
					<dim>1</dim>
					<dim>1</dim>
					<dim>1</dim>
				</port>
			</output>
		</layer>
		<layer id="211" name="Constant_17887" type="Const" version="opset1">
			<data element_type="f32" shape="1, 1, 1, 1" offset="0" size="4" />
			<output>
				<port id="0" precision="FP32">
					<dim>1</dim>
					<dim>1</dim>
					<dim>1</dim>
					<dim>1</dim>
				</port>
			</output>
		</layer>
		<layer id="212" name="Constant_17888" type="Const" version="opset1">
			<data element_type="f32" shape="1, 1, 1, 1" offset="554392" size="4" />
			<output>
				<port id="0" precision="FP32">
					<dim>1</dim>
					<dim>1</dim>
					<dim>1</dim>
					<dim>1</dim>
				</port>
			</output>
		</layer>
		<layer id="213" name="/encoder/s2/b1/conv2/bn/act/DeepLabV3Plus/RegNetEncoder[encoder]/RegStage[s2]/Bottleneck[b1]/ConvNormAct[conv2]/BatchNormAct2d[bn]/ReLU[act]/relu__0|OUTPUT/FakeQuantize" type="FakeQuantize" version="opset1">
			<data levels="256" auto_broadcast="numpy" />
			<input>
				<port id="0" precision="FP32">
					<dim>1</dim>
					<dim>288</dim>
					<dim>56</dim>
					<dim>56</dim>
				</port>
				<port id="1" precision="FP32">
					<dim>1</dim>
					<dim>1</dim>
					<dim>1</dim>
					<dim>1</dim>
				</port>
				<port id="2" precision="FP32">
					<dim>1</dim>
					<dim>1</dim>
					<dim>1</dim>
					<dim>1</dim>
				</port>
				<port id="3" precision="FP32">
					<dim>1</dim>
					<dim>1</dim>
					<dim>1</dim>
					<dim>1</dim>
				</port>
				<port id="4" precision="FP32">
					<dim>1</dim>
					<dim>1</dim>
					<dim>1</dim>
					<dim>1</dim>
				</port>
			</input>
			<output>
				<port id="5" precision="FP32" names="/encoder/s2/b1/conv2/bn/act/DeepLabV3Plus/RegNetEncoder[encoder]/RegStage[s2]/Bottleneck[b1]/ConvNormAct[conv2]/BatchNormAct2d[bn]/ReLU[act]/relu__0|OUTPUT/FakeQuantize_output_0">
					<dim>1</dim>
					<dim>288</dim>
					<dim>56</dim>
					<dim>56</dim>
				</port>
			</output>
		</layer>
		<layer id="214" name="Constant_878" type="Const" version="opset1">
			<data element_type="i64" shape="2" offset="101972" size="16" />
			<output>
				<port id="0" precision="I64">
					<dim>2</dim>
				</port>
			</output>
		</layer>
		<layer id="215" name="/encoder/s2/b1/se/ReduceMean" type="ReduceMean" version="opset1">
			<data keep_dims="true" />
			<input>
				<port id="0" precision="FP32">
					<dim>1</dim>
					<dim>288</dim>
					<dim>56</dim>
					<dim>56</dim>
				</port>
				<port id="1" precision="I64">
					<dim>2</dim>
				</port>
			</input>
			<output>
				<port id="2" precision="FP32" names="/encoder/s2/b1/se/ReduceMean_output_0">
					<dim>1</dim>
					<dim>288</dim>
					<dim>1</dim>
					<dim>1</dim>
				</port>
			</output>
		</layer>
		<layer id="216" name="encoder.s2.b1.se.fc1.weight" type="Const" version="opset1">
			<data element_type="f32" shape="36, 288, 1, 1" offset="554396" size="41472" />
			<output>
				<port id="0" precision="FP32" names="encoder.s2.b1.se.fc1.weight">
					<dim>36</dim>
					<dim>288</dim>
					<dim>1</dim>
					<dim>1</dim>
				</port>
			</output>
		</layer>
		<layer id="217" name="/encoder/s2/b1/se/fc1/Conv/WithoutBiases" type="Convolution" version="opset1">
			<data strides="1, 1" dilations="1, 1" pads_begin="0, 0" pads_end="0, 0" auto_pad="explicit" />
			<input>
				<port id="0" precision="FP32">
					<dim>1</dim>
					<dim>288</dim>
					<dim>1</dim>
					<dim>1</dim>
				</port>
				<port id="1" precision="FP32">
					<dim>36</dim>
					<dim>288</dim>
					<dim>1</dim>
					<dim>1</dim>
				</port>
			</input>
			<output>
				<port id="2" precision="FP32">
					<dim>1</dim>
					<dim>36</dim>
					<dim>1</dim>
					<dim>1</dim>
				</port>
			</output>
		</layer>
		<layer id="218" name="Reshape_892" type="Const" version="opset1">
			<data element_type="f32" shape="1, 36, 1, 1" offset="595868" size="144" />
			<output>
				<port id="0" precision="FP32">
					<dim>1</dim>
					<dim>36</dim>
					<dim>1</dim>
					<dim>1</dim>
				</port>
			</output>
		</layer>
		<layer id="219" name="/encoder/s2/b1/se/fc1/Conv" type="Add" version="opset1">
			<data auto_broadcast="numpy" />
			<input>
				<port id="0" precision="FP32">
					<dim>1</dim>
					<dim>36</dim>
					<dim>1</dim>
					<dim>1</dim>
				</port>
				<port id="1" precision="FP32">
					<dim>1</dim>
					<dim>36</dim>
					<dim>1</dim>
					<dim>1</dim>
				</port>
			</input>
			<output>
				<port id="2" precision="FP32" names="/encoder/s2/b1/se/fc1/Conv_output_0">
					<dim>1</dim>
					<dim>36</dim>
					<dim>1</dim>
					<dim>1</dim>
				</port>
			</output>
		</layer>
		<layer id="220" name="/encoder/s2/b1/se/act/Relu" type="ReLU" version="opset1">
			<input>
				<port id="0" precision="FP32">
					<dim>1</dim>
					<dim>36</dim>
					<dim>1</dim>
					<dim>1</dim>
				</port>
			</input>
			<output>
				<port id="1" precision="FP32" names="/encoder/s2/b1/se/act/Relu_output_0">
					<dim>1</dim>
					<dim>36</dim>
					<dim>1</dim>
					<dim>1</dim>
				</port>
			</output>
		</layer>
		<layer id="221" name="encoder.s2.b1.se.fc2.weight" type="Const" version="opset1">
			<data element_type="f32" shape="288, 36, 1, 1" offset="596012" size="41472" />
			<output>
				<port id="0" precision="FP32" names="encoder.s2.b1.se.fc2.weight">
					<dim>288</dim>
					<dim>36</dim>
					<dim>1</dim>
					<dim>1</dim>
				</port>
			</output>
		</layer>
		<layer id="222" name="/encoder/s2/b1/se/fc2/Conv/WithoutBiases" type="Convolution" version="opset1">
			<data strides="1, 1" dilations="1, 1" pads_begin="0, 0" pads_end="0, 0" auto_pad="explicit" />
			<input>
				<port id="0" precision="FP32">
					<dim>1</dim>
					<dim>36</dim>
					<dim>1</dim>
					<dim>1</dim>
				</port>
				<port id="1" precision="FP32">
					<dim>288</dim>
					<dim>36</dim>
					<dim>1</dim>
					<dim>1</dim>
				</port>
			</input>
			<output>
				<port id="2" precision="FP32">
					<dim>1</dim>
					<dim>288</dim>
					<dim>1</dim>
					<dim>1</dim>
				</port>
			</output>
		</layer>
		<layer id="223" name="Reshape_909" type="Const" version="opset1">
			<data element_type="f32" shape="1, 288, 1, 1" offset="637484" size="1152" />
			<output>
				<port id="0" precision="FP32">
					<dim>1</dim>
					<dim>288</dim>
					<dim>1</dim>
					<dim>1</dim>
				</port>
			</output>
		</layer>
		<layer id="224" name="/encoder/s2/b1/se/fc2/Conv" type="Add" version="opset1">
			<data auto_broadcast="numpy" />
			<input>
				<port id="0" precision="FP32">
					<dim>1</dim>
					<dim>288</dim>
					<dim>1</dim>
					<dim>1</dim>
				</port>
				<port id="1" precision="FP32">
					<dim>1</dim>
					<dim>288</dim>
					<dim>1</dim>
					<dim>1</dim>
				</port>
			</input>
			<output>
				<port id="2" precision="FP32" names="/encoder/s2/b1/se/fc2/Conv_output_0">
					<dim>1</dim>
					<dim>288</dim>
					<dim>1</dim>
					<dim>1</dim>
				</port>
			</output>
		</layer>
		<layer id="225" name="/encoder/s2/b1/se/gate/Sigmoid" type="Sigmoid" version="opset1">
			<input>
				<port id="0" precision="FP32">
					<dim>1</dim>
					<dim>288</dim>
					<dim>1</dim>
					<dim>1</dim>
				</port>
			</input>
			<output>
				<port id="1" precision="FP32" names="/encoder/s2/b1/se/gate/Sigmoid_output_0">
					<dim>1</dim>
					<dim>288</dim>
					<dim>1</dim>
					<dim>1</dim>
				</port>
			</output>
		</layer>
		<layer id="226" name="Constant_17889" type="Const" version="opset1">
			<data element_type="f32" shape="1, 1, 1, 1" offset="0" size="4" />
			<output>
				<port id="0" precision="FP32">
					<dim>1</dim>
					<dim>1</dim>
					<dim>1</dim>
					<dim>1</dim>
				</port>
			</output>
		</layer>
		<layer id="227" name="Constant_17890" type="Const" version="opset1">
			<data element_type="f32" shape="1, 1, 1, 1" offset="638636" size="4" />
			<output>
				<port id="0" precision="FP32">
					<dim>1</dim>
					<dim>1</dim>
					<dim>1</dim>
					<dim>1</dim>
				</port>
			</output>
		</layer>
		<layer id="228" name="Constant_17891" type="Const" version="opset1">
			<data element_type="f32" shape="1, 1, 1, 1" offset="0" size="4" />
			<output>
				<port id="0" precision="FP32">
					<dim>1</dim>
					<dim>1</dim>
					<dim>1</dim>
					<dim>1</dim>
				</port>
			</output>
		</layer>
		<layer id="229" name="Constant_17892" type="Const" version="opset1">
			<data element_type="f32" shape="1, 1, 1, 1" offset="638636" size="4" />
			<output>
				<port id="0" precision="FP32">
					<dim>1</dim>
					<dim>1</dim>
					<dim>1</dim>
					<dim>1</dim>
				</port>
			</output>
		</layer>
		<layer id="230" name="/encoder/s2/b1/se/gate/DeepLabV3Plus/RegNetEncoder[encoder]/RegStage[s2]/Bottleneck[b1]/SEModule[se]/Sigmoid[gate]/sigmoid_0|OUTPUT/FakeQuantize" type="FakeQuantize" version="opset1">
			<data levels="256" auto_broadcast="numpy" />
			<input>
				<port id="0" precision="FP32">
					<dim>1</dim>
					<dim>288</dim>
					<dim>1</dim>
					<dim>1</dim>
				</port>
				<port id="1" precision="FP32">
					<dim>1</dim>
					<dim>1</dim>
					<dim>1</dim>
					<dim>1</dim>
				</port>
				<port id="2" precision="FP32">
					<dim>1</dim>
					<dim>1</dim>
					<dim>1</dim>
					<dim>1</dim>
				</port>
				<port id="3" precision="FP32">
					<dim>1</dim>
					<dim>1</dim>
					<dim>1</dim>
					<dim>1</dim>
				</port>
				<port id="4" precision="FP32">
					<dim>1</dim>
					<dim>1</dim>
					<dim>1</dim>
					<dim>1</dim>
				</port>
			</input>
			<output>
				<port id="5" precision="FP32" names="/encoder/s2/b1/se/gate/DeepLabV3Plus/RegNetEncoder[encoder]/RegStage[s2]/Bottleneck[b1]/SEModule[se]/Sigmoid[gate]/sigmoid_0|OUTPUT/FakeQuantize_output_0">
					<dim>1</dim>
					<dim>288</dim>
					<dim>1</dim>
					<dim>1</dim>
				</port>
			</output>
		</layer>
		<layer id="231" name="/encoder/s2/b1/se/Mul" type="Multiply" version="opset1">
			<data auto_broadcast="numpy" />
			<input>
				<port id="0" precision="FP32">
					<dim>1</dim>
					<dim>288</dim>
					<dim>56</dim>
					<dim>56</dim>
				</port>
				<port id="1" precision="FP32">
					<dim>1</dim>
					<dim>288</dim>
					<dim>1</dim>
					<dim>1</dim>
				</port>
			</input>
			<output>
				<port id="2" precision="FP32" names="/encoder/s2/b1/se/Mul_output_0">
					<dim>1</dim>
					<dim>288</dim>
					<dim>56</dim>
					<dim>56</dim>
				</port>
			</output>
		</layer>
		<layer id="232" name="Constant_17893" type="Const" version="opset1">
			<data element_type="f32" shape="1, 1, 1, 1" offset="0" size="4" />
			<output>
				<port id="0" precision="FP32">
					<dim>1</dim>
					<dim>1</dim>
					<dim>1</dim>
					<dim>1</dim>
				</port>
			</output>
		</layer>
		<layer id="233" name="Constant_17894" type="Const" version="opset1">
			<data element_type="f32" shape="1, 1, 1, 1" offset="638640" size="4" />
			<output>
				<port id="0" precision="FP32">
					<dim>1</dim>
					<dim>1</dim>
					<dim>1</dim>
					<dim>1</dim>
				</port>
			</output>
		</layer>
		<layer id="234" name="Constant_17895" type="Const" version="opset1">
			<data element_type="f32" shape="1, 1, 1, 1" offset="0" size="4" />
			<output>
				<port id="0" precision="FP32">
					<dim>1</dim>
					<dim>1</dim>
					<dim>1</dim>
					<dim>1</dim>
				</port>
			</output>
		</layer>
		<layer id="235" name="Constant_17896" type="Const" version="opset1">
			<data element_type="f32" shape="1, 1, 1, 1" offset="638640" size="4" />
			<output>
				<port id="0" precision="FP32">
					<dim>1</dim>
					<dim>1</dim>
					<dim>1</dim>
					<dim>1</dim>
				</port>
			</output>
		</layer>
		<layer id="236" name="/encoder/s2/b1/se/DeepLabV3Plus/RegNetEncoder[encoder]/RegStage[s2]/Bottleneck[b1]/SEModule[se]/__mul___0|OUTPUT/FakeQuantize" type="FakeQuantize" version="opset1">
			<data levels="256" auto_broadcast="numpy" />
			<input>
				<port id="0" precision="FP32">
					<dim>1</dim>
					<dim>288</dim>
					<dim>56</dim>
					<dim>56</dim>
				</port>
				<port id="1" precision="FP32">
					<dim>1</dim>
					<dim>1</dim>
					<dim>1</dim>
					<dim>1</dim>
				</port>
				<port id="2" precision="FP32">
					<dim>1</dim>
					<dim>1</dim>
					<dim>1</dim>
					<dim>1</dim>
				</port>
				<port id="3" precision="FP32">
					<dim>1</dim>
					<dim>1</dim>
					<dim>1</dim>
					<dim>1</dim>
				</port>
				<port id="4" precision="FP32">
					<dim>1</dim>
					<dim>1</dim>
					<dim>1</dim>
					<dim>1</dim>
				</port>
			</input>
			<output>
				<port id="5" precision="FP32" names="/encoder/s2/b1/se/DeepLabV3Plus/RegNetEncoder[encoder]/RegStage[s2]/Bottleneck[b1]/SEModule[se]/__mul___0|OUTPUT/FakeQuantize_output_0">
					<dim>1</dim>
					<dim>288</dim>
					<dim>56</dim>
					<dim>56</dim>
				</port>
			</output>
		</layer>
		<layer id="237" name="Constant_19981" type="Const" version="opset1">
			<data element_type="i8" shape="288, 288, 1, 1" offset="638644" size="82944" />
			<output>
				<port id="0" precision="I8">
					<dim>288</dim>
					<dim>288</dim>
					<dim>1</dim>
					<dim>1</dim>
				</port>
			</output>
		</layer>
		<layer id="238" name="Convert_19982" type="Convert" version="opset1">
			<data destination_type="f32" />
			<input>
				<port id="0" precision="I8">
					<dim>288</dim>
					<dim>288</dim>
					<dim>1</dim>
					<dim>1</dim>
				</port>
			</input>
			<output>
				<port id="1" precision="FP32">
					<dim>288</dim>
					<dim>288</dim>
					<dim>1</dim>
					<dim>1</dim>
				</port>
			</output>
		</layer>
		<layer id="239" name="Constant_19983" type="Const" version="opset1">
			<data element_type="f32" shape="288, 1, 1, 1" offset="721588" size="1152" />
			<output>
				<port id="0" precision="FP32">
					<dim>288</dim>
					<dim>1</dim>
					<dim>1</dim>
					<dim>1</dim>
				</port>
			</output>
		</layer>
		<layer id="240" name="Multiply_16809" type="Multiply" version="opset1">
			<data auto_broadcast="numpy" />
			<input>
				<port id="0" precision="FP32">
					<dim>288</dim>
					<dim>288</dim>
					<dim>1</dim>
					<dim>1</dim>
				</port>
				<port id="1" precision="FP32">
					<dim>288</dim>
					<dim>1</dim>
					<dim>1</dim>
					<dim>1</dim>
				</port>
			</input>
			<output>
				<port id="2" precision="FP32">
					<dim>288</dim>
					<dim>288</dim>
					<dim>1</dim>
					<dim>1</dim>
				</port>
			</output>
		</layer>
		<layer id="241" name="Multiply_16217" type="Convolution" version="opset1">
			<data strides="1, 1" dilations="1, 1" pads_begin="0, 0" pads_end="0, 0" auto_pad="explicit" />
			<input>
				<port id="0" precision="FP32">
					<dim>1</dim>
					<dim>288</dim>
					<dim>56</dim>
					<dim>56</dim>
				</port>
				<port id="1" precision="FP32">
					<dim>288</dim>
					<dim>288</dim>
					<dim>1</dim>
					<dim>1</dim>
				</port>
			</input>
			<output>
				<port id="2" precision="FP32">
					<dim>1</dim>
					<dim>288</dim>
					<dim>56</dim>
					<dim>56</dim>
				</port>
			</output>
		</layer>
		<layer id="242" name="Constant_16222" type="Const" version="opset1">
			<data element_type="f32" shape="1, 288, 1, 1" offset="722740" size="1152" />
			<output>
				<port id="0" precision="FP32">
					<dim>1</dim>
					<dim>288</dim>
					<dim>1</dim>
					<dim>1</dim>
				</port>
			</output>
		</layer>
		<layer id="243" name="/encoder/s2/b1/conv3/bn/BatchNormalization" type="Add" version="opset1">
			<data auto_broadcast="numpy" />
			<input>
				<port id="0" precision="FP32">
					<dim>1</dim>
					<dim>288</dim>
					<dim>56</dim>
					<dim>56</dim>
				</port>
				<port id="1" precision="FP32">
					<dim>1</dim>
					<dim>288</dim>
					<dim>1</dim>
					<dim>1</dim>
				</port>
			</input>
			<output>
				<port id="2" precision="FP32" names="/encoder/s2/b1/conv3/bn/BatchNormalization_output_0">
					<dim>1</dim>
					<dim>288</dim>
					<dim>56</dim>
					<dim>56</dim>
				</port>
			</output>
		</layer>
		<layer id="244" name="Constant_17897" type="Const" version="opset1">
			<data element_type="f32" shape="1, 1, 1, 1" offset="723892" size="4" />
			<output>
				<port id="0" precision="FP32">
					<dim>1</dim>
					<dim>1</dim>
					<dim>1</dim>
					<dim>1</dim>
				</port>
			</output>
		</layer>
		<layer id="245" name="Constant_17898" type="Const" version="opset1">
			<data element_type="f32" shape="1, 1, 1, 1" offset="723896" size="4" />
			<output>
				<port id="0" precision="FP32">
					<dim>1</dim>
					<dim>1</dim>
					<dim>1</dim>
					<dim>1</dim>
				</port>
			</output>
		</layer>
		<layer id="246" name="Constant_17899" type="Const" version="opset1">
			<data element_type="f32" shape="1, 1, 1, 1" offset="723892" size="4" />
			<output>
				<port id="0" precision="FP32">
					<dim>1</dim>
					<dim>1</dim>
					<dim>1</dim>
					<dim>1</dim>
				</port>
			</output>
		</layer>
		<layer id="247" name="Constant_17900" type="Const" version="opset1">
			<data element_type="f32" shape="1, 1, 1, 1" offset="723896" size="4" />
			<output>
				<port id="0" precision="FP32">
					<dim>1</dim>
					<dim>1</dim>
					<dim>1</dim>
					<dim>1</dim>
				</port>
			</output>
		</layer>
		<layer id="248" name="/encoder/s2/b1/conv3/bn/DeepLabV3Plus/RegNetEncoder[encoder]/RegStage[s2]/Bottleneck[b1]/ConvNormAct[conv3]/BatchNormAct2d[bn]/batch_norm_0|OUTPUT/FakeQuantize" type="FakeQuantize" version="opset1">
			<data levels="256" auto_broadcast="numpy" />
			<input>
				<port id="0" precision="FP32">
					<dim>1</dim>
					<dim>288</dim>
					<dim>56</dim>
					<dim>56</dim>
				</port>
				<port id="1" precision="FP32">
					<dim>1</dim>
					<dim>1</dim>
					<dim>1</dim>
					<dim>1</dim>
				</port>
				<port id="2" precision="FP32">
					<dim>1</dim>
					<dim>1</dim>
					<dim>1</dim>
					<dim>1</dim>
				</port>
				<port id="3" precision="FP32">
					<dim>1</dim>
					<dim>1</dim>
					<dim>1</dim>
					<dim>1</dim>
				</port>
				<port id="4" precision="FP32">
					<dim>1</dim>
					<dim>1</dim>
					<dim>1</dim>
					<dim>1</dim>
				</port>
			</input>
			<output>
				<port id="5" precision="FP32" names="/encoder/s2/b1/conv3/bn/DeepLabV3Plus/RegNetEncoder[encoder]/RegStage[s2]/Bottleneck[b1]/ConvNormAct[conv3]/BatchNormAct2d[bn]/batch_norm_0|OUTPUT/FakeQuantize_output_0">
					<dim>1</dim>
					<dim>288</dim>
					<dim>56</dim>
					<dim>56</dim>
				</port>
			</output>
		</layer>
		<layer id="249" name="Constant_19985" type="Const" version="opset1">
			<data element_type="i8" shape="288, 144, 1, 1" offset="723900" size="41472" />
			<output>
				<port id="0" precision="I8">
					<dim>288</dim>
					<dim>144</dim>
					<dim>1</dim>
					<dim>1</dim>
				</port>
			</output>
		</layer>
		<layer id="250" name="Convert_19986" type="Convert" version="opset1">
			<data destination_type="f32" />
			<input>
				<port id="0" precision="I8">
					<dim>288</dim>
					<dim>144</dim>
					<dim>1</dim>
					<dim>1</dim>
				</port>
			</input>
			<output>
				<port id="1" precision="FP32">
					<dim>288</dim>
					<dim>144</dim>
					<dim>1</dim>
					<dim>1</dim>
				</port>
			</output>
		</layer>
		<layer id="251" name="Constant_19987" type="Const" version="opset1">
			<data element_type="f32" shape="288, 1, 1, 1" offset="765372" size="1152" />
			<output>
				<port id="0" precision="FP32">
					<dim>288</dim>
					<dim>1</dim>
					<dim>1</dim>
					<dim>1</dim>
				</port>
			</output>
		</layer>
		<layer id="252" name="Multiply_16813" type="Multiply" version="opset1">
			<data auto_broadcast="numpy" />
			<input>
				<port id="0" precision="FP32">
					<dim>288</dim>
					<dim>144</dim>
					<dim>1</dim>
					<dim>1</dim>
				</port>
				<port id="1" precision="FP32">
					<dim>288</dim>
					<dim>1</dim>
					<dim>1</dim>
					<dim>1</dim>
				</port>
			</input>
			<output>
				<port id="2" precision="FP32">
					<dim>288</dim>
					<dim>144</dim>
					<dim>1</dim>
					<dim>1</dim>
				</port>
			</output>
		</layer>
		<layer id="253" name="Multiply_16224" type="Convolution" version="opset1">
			<data strides="2, 2" dilations="1, 1" pads_begin="0, 0" pads_end="0, 0" auto_pad="explicit" />
			<input>
				<port id="0" precision="FP32">
					<dim>1</dim>
					<dim>144</dim>
					<dim>112</dim>
					<dim>112</dim>
				</port>
				<port id="1" precision="FP32">
					<dim>288</dim>
					<dim>144</dim>
					<dim>1</dim>
					<dim>1</dim>
				</port>
			</input>
			<output>
				<port id="2" precision="FP32">
					<dim>1</dim>
					<dim>288</dim>
					<dim>56</dim>
					<dim>56</dim>
				</port>
			</output>
		</layer>
		<layer id="254" name="Constant_16229" type="Const" version="opset1">
			<data element_type="f32" shape="1, 288, 1, 1" offset="766524" size="1152" />
			<output>
				<port id="0" precision="FP32">
					<dim>1</dim>
					<dim>288</dim>
					<dim>1</dim>
					<dim>1</dim>
				</port>
			</output>
		</layer>
		<layer id="255" name="/encoder/s2/b1/downsample/bn/BatchNormalization" type="Add" version="opset1">
			<data auto_broadcast="numpy" />
			<input>
				<port id="0" precision="FP32">
					<dim>1</dim>
					<dim>288</dim>
					<dim>56</dim>
					<dim>56</dim>
				</port>
				<port id="1" precision="FP32">
					<dim>1</dim>
					<dim>288</dim>
					<dim>1</dim>
					<dim>1</dim>
				</port>
			</input>
			<output>
				<port id="2" precision="FP32" names="/encoder/s2/b1/downsample/bn/BatchNormalization_output_0">
					<dim>1</dim>
					<dim>288</dim>
					<dim>56</dim>
					<dim>56</dim>
				</port>
			</output>
		</layer>
		<layer id="256" name="Constant_17901" type="Const" version="opset1">
			<data element_type="f32" shape="1, 1, 1, 1" offset="767676" size="4" />
			<output>
				<port id="0" precision="FP32">
					<dim>1</dim>
					<dim>1</dim>
					<dim>1</dim>
					<dim>1</dim>
				</port>
			</output>
		</layer>
		<layer id="257" name="Constant_17902" type="Const" version="opset1">
			<data element_type="f32" shape="1, 1, 1, 1" offset="767680" size="4" />
			<output>
				<port id="0" precision="FP32">
					<dim>1</dim>
					<dim>1</dim>
					<dim>1</dim>
					<dim>1</dim>
				</port>
			</output>
		</layer>
		<layer id="258" name="Constant_17903" type="Const" version="opset1">
			<data element_type="f32" shape="1, 1, 1, 1" offset="767676" size="4" />
			<output>
				<port id="0" precision="FP32">
					<dim>1</dim>
					<dim>1</dim>
					<dim>1</dim>
					<dim>1</dim>
				</port>
			</output>
		</layer>
		<layer id="259" name="Constant_17904" type="Const" version="opset1">
			<data element_type="f32" shape="1, 1, 1, 1" offset="767680" size="4" />
			<output>
				<port id="0" precision="FP32">
					<dim>1</dim>
					<dim>1</dim>
					<dim>1</dim>
					<dim>1</dim>
				</port>
			</output>
		</layer>
		<layer id="260" name="/encoder/s2/b1/downsample/bn/DeepLabV3Plus/RegNetEncoder[encoder]/RegStage[s2]/Bottleneck[b1]/ConvNormAct[downsample]/BatchNormAct2d[bn]/batch_norm_0|OUTPUT/FakeQuantize" type="FakeQuantize" version="opset1">
			<data levels="256" auto_broadcast="numpy" />
			<input>
				<port id="0" precision="FP32">
					<dim>1</dim>
					<dim>288</dim>
					<dim>56</dim>
					<dim>56</dim>
				</port>
				<port id="1" precision="FP32">
					<dim>1</dim>
					<dim>1</dim>
					<dim>1</dim>
					<dim>1</dim>
				</port>
				<port id="2" precision="FP32">
					<dim>1</dim>
					<dim>1</dim>
					<dim>1</dim>
					<dim>1</dim>
				</port>
				<port id="3" precision="FP32">
					<dim>1</dim>
					<dim>1</dim>
					<dim>1</dim>
					<dim>1</dim>
				</port>
				<port id="4" precision="FP32">
					<dim>1</dim>
					<dim>1</dim>
					<dim>1</dim>
					<dim>1</dim>
				</port>
			</input>
			<output>
				<port id="5" precision="FP32" names="/encoder/s2/b1/downsample/bn/DeepLabV3Plus/RegNetEncoder[encoder]/RegStage[s2]/Bottleneck[b1]/ConvNormAct[downsample]/BatchNormAct2d[bn]/batch_norm_0|OUTPUT/FakeQuantize_output_0">
					<dim>1</dim>
					<dim>288</dim>
					<dim>56</dim>
					<dim>56</dim>
				</port>
			</output>
		</layer>
		<layer id="261" name="/encoder/s2/b1/Add" type="Add" version="opset1">
			<data auto_broadcast="numpy" />
			<input>
				<port id="0" precision="FP32">
					<dim>1</dim>
					<dim>288</dim>
					<dim>56</dim>
					<dim>56</dim>
				</port>
				<port id="1" precision="FP32">
					<dim>1</dim>
					<dim>288</dim>
					<dim>56</dim>
					<dim>56</dim>
				</port>
			</input>
			<output>
				<port id="2" precision="FP32" names="/encoder/s2/b1/Add_output_0">
					<dim>1</dim>
					<dim>288</dim>
					<dim>56</dim>
					<dim>56</dim>
				</port>
			</output>
		</layer>
		<layer id="262" name="Constant_17905" type="Const" version="opset1">
			<data element_type="f32" shape="1, 1, 1, 1" offset="0" size="4" />
			<output>
				<port id="0" precision="FP32">
					<dim>1</dim>
					<dim>1</dim>
					<dim>1</dim>
					<dim>1</dim>
				</port>
			</output>
		</layer>
		<layer id="263" name="Constant_17906" type="Const" version="opset1">
			<data element_type="f32" shape="1, 1, 1, 1" offset="767684" size="4" />
			<output>
				<port id="0" precision="FP32">
					<dim>1</dim>
					<dim>1</dim>
					<dim>1</dim>
					<dim>1</dim>
				</port>
			</output>
		</layer>
		<layer id="264" name="Constant_17907" type="Const" version="opset1">
			<data element_type="f32" shape="1, 1, 1, 1" offset="0" size="4" />
			<output>
				<port id="0" precision="FP32">
					<dim>1</dim>
					<dim>1</dim>
					<dim>1</dim>
					<dim>1</dim>
				</port>
			</output>
		</layer>
		<layer id="265" name="Constant_17908" type="Const" version="opset1">
			<data element_type="f32" shape="1, 1, 1, 1" offset="767684" size="4" />
			<output>
				<port id="0" precision="FP32">
					<dim>1</dim>
					<dim>1</dim>
					<dim>1</dim>
					<dim>1</dim>
				</port>
			</output>
		</layer>
		<layer id="266" name="/encoder/s2/b1/act3/DeepLabV3Plus/RegNetEncoder[encoder]/RegStage[s2]/Bottleneck[b1]/ReLU[act3]/relu_0|OUTPUT/FakeQuantize" type="FakeQuantize" version="opset1">
			<data levels="256" auto_broadcast="numpy" />
			<input>
				<port id="0" precision="FP32">
					<dim>1</dim>
					<dim>288</dim>
					<dim>56</dim>
					<dim>56</dim>
				</port>
				<port id="1" precision="FP32">
					<dim>1</dim>
					<dim>1</dim>
					<dim>1</dim>
					<dim>1</dim>
				</port>
				<port id="2" precision="FP32">
					<dim>1</dim>
					<dim>1</dim>
					<dim>1</dim>
					<dim>1</dim>
				</port>
				<port id="3" precision="FP32">
					<dim>1</dim>
					<dim>1</dim>
					<dim>1</dim>
					<dim>1</dim>
				</port>
				<port id="4" precision="FP32">
					<dim>1</dim>
					<dim>1</dim>
					<dim>1</dim>
					<dim>1</dim>
				</port>
			</input>
			<output>
				<port id="5" precision="FP32" names="/encoder/s2/b1/act3/DeepLabV3Plus/RegNetEncoder[encoder]/RegStage[s2]/Bottleneck[b1]/ReLU[act3]/relu_0|OUTPUT/FakeQuantize_output_0">
					<dim>1</dim>
					<dim>288</dim>
					<dim>56</dim>
					<dim>56</dim>
				</port>
			</output>
		</layer>
		<layer id="267" name="Constant_19989" type="Const" version="opset1">
			<data element_type="i8" shape="288, 288, 1, 1" offset="767688" size="82944" />
			<output>
				<port id="0" precision="I8">
					<dim>288</dim>
					<dim>288</dim>
					<dim>1</dim>
					<dim>1</dim>
				</port>
			</output>
		</layer>
		<layer id="268" name="Convert_19990" type="Convert" version="opset1">
			<data destination_type="f32" />
			<input>
				<port id="0" precision="I8">
					<dim>288</dim>
					<dim>288</dim>
					<dim>1</dim>
					<dim>1</dim>
				</port>
			</input>
			<output>
				<port id="1" precision="FP32">
					<dim>288</dim>
					<dim>288</dim>
					<dim>1</dim>
					<dim>1</dim>
				</port>
			</output>
		</layer>
		<layer id="269" name="Constant_19991" type="Const" version="opset1">
			<data element_type="f32" shape="288, 1, 1, 1" offset="850632" size="1152" />
			<output>
				<port id="0" precision="FP32">
					<dim>288</dim>
					<dim>1</dim>
					<dim>1</dim>
					<dim>1</dim>
				</port>
			</output>
		</layer>
		<layer id="270" name="Multiply_16817" type="Multiply" version="opset1">
			<data auto_broadcast="numpy" />
			<input>
				<port id="0" precision="FP32">
					<dim>288</dim>
					<dim>288</dim>
					<dim>1</dim>
					<dim>1</dim>
				</port>
				<port id="1" precision="FP32">
					<dim>288</dim>
					<dim>1</dim>
					<dim>1</dim>
					<dim>1</dim>
				</port>
			</input>
			<output>
				<port id="2" precision="FP32">
					<dim>288</dim>
					<dim>288</dim>
					<dim>1</dim>
					<dim>1</dim>
				</port>
			</output>
		</layer>
		<layer id="271" name="Multiply_16231" type="Convolution" version="opset1">
			<data strides="1, 1" dilations="1, 1" pads_begin="0, 0" pads_end="0, 0" auto_pad="explicit" />
			<input>
				<port id="0" precision="FP32">
					<dim>1</dim>
					<dim>288</dim>
					<dim>56</dim>
					<dim>56</dim>
				</port>
				<port id="1" precision="FP32">
					<dim>288</dim>
					<dim>288</dim>
					<dim>1</dim>
					<dim>1</dim>
				</port>
			</input>
			<output>
				<port id="2" precision="FP32">
					<dim>1</dim>
					<dim>288</dim>
					<dim>56</dim>
					<dim>56</dim>
				</port>
			</output>
		</layer>
		<layer id="272" name="Constant_16236" type="Const" version="opset1">
			<data element_type="f32" shape="1, 288, 1, 1" offset="851784" size="1152" />
			<output>
				<port id="0" precision="FP32">
					<dim>1</dim>
					<dim>288</dim>
					<dim>1</dim>
					<dim>1</dim>
				</port>
			</output>
		</layer>
		<layer id="273" name="/encoder/s2/b2/conv1/bn/BatchNormalization" type="Add" version="opset1">
			<data auto_broadcast="numpy" />
			<input>
				<port id="0" precision="FP32">
					<dim>1</dim>
					<dim>288</dim>
					<dim>56</dim>
					<dim>56</dim>
				</port>
				<port id="1" precision="FP32">
					<dim>1</dim>
					<dim>288</dim>
					<dim>1</dim>
					<dim>1</dim>
				</port>
			</input>
			<output>
				<port id="2" precision="FP32" names="/encoder/s2/b2/conv1/bn/BatchNormalization_output_0">
					<dim>1</dim>
					<dim>288</dim>
					<dim>56</dim>
					<dim>56</dim>
				</port>
			</output>
		</layer>
		<layer id="274" name="Constant_17909" type="Const" version="opset1">
			<data element_type="f32" shape="1, 1, 1, 1" offset="0" size="4" />
			<output>
				<port id="0" precision="FP32">
					<dim>1</dim>
					<dim>1</dim>
					<dim>1</dim>
					<dim>1</dim>
				</port>
			</output>
		</layer>
		<layer id="275" name="Constant_17910" type="Const" version="opset1">
			<data element_type="f32" shape="1, 1, 1, 1" offset="852936" size="4" />
			<output>
				<port id="0" precision="FP32">
					<dim>1</dim>
					<dim>1</dim>
					<dim>1</dim>
					<dim>1</dim>
				</port>
			</output>
		</layer>
		<layer id="276" name="Constant_17911" type="Const" version="opset1">
			<data element_type="f32" shape="1, 1, 1, 1" offset="0" size="4" />
			<output>
				<port id="0" precision="FP32">
					<dim>1</dim>
					<dim>1</dim>
					<dim>1</dim>
					<dim>1</dim>
				</port>
			</output>
		</layer>
		<layer id="277" name="Constant_17912" type="Const" version="opset1">
			<data element_type="f32" shape="1, 1, 1, 1" offset="852936" size="4" />
			<output>
				<port id="0" precision="FP32">
					<dim>1</dim>
					<dim>1</dim>
					<dim>1</dim>
					<dim>1</dim>
				</port>
			</output>
		</layer>
		<layer id="278" name="/encoder/s2/b2/conv1/bn/act/DeepLabV3Plus/RegNetEncoder[encoder]/RegStage[s2]/Bottleneck[b2]/ConvNormAct[conv1]/BatchNormAct2d[bn]/ReLU[act]/relu__0|OUTPUT/FakeQuantize" type="FakeQuantize" version="opset1">
			<data levels="256" auto_broadcast="numpy" />
			<input>
				<port id="0" precision="FP32">
					<dim>1</dim>
					<dim>288</dim>
					<dim>56</dim>
					<dim>56</dim>
				</port>
				<port id="1" precision="FP32">
					<dim>1</dim>
					<dim>1</dim>
					<dim>1</dim>
					<dim>1</dim>
				</port>
				<port id="2" precision="FP32">
					<dim>1</dim>
					<dim>1</dim>
					<dim>1</dim>
					<dim>1</dim>
				</port>
				<port id="3" precision="FP32">
					<dim>1</dim>
					<dim>1</dim>
					<dim>1</dim>
					<dim>1</dim>
				</port>
				<port id="4" precision="FP32">
					<dim>1</dim>
					<dim>1</dim>
					<dim>1</dim>
					<dim>1</dim>
				</port>
			</input>
			<output>
				<port id="5" precision="FP32" names="/encoder/s2/b2/conv1/bn/act/DeepLabV3Plus/RegNetEncoder[encoder]/RegStage[s2]/Bottleneck[b2]/ConvNormAct[conv1]/BatchNormAct2d[bn]/ReLU[act]/relu__0|OUTPUT/FakeQuantize_output_0">
					<dim>1</dim>
					<dim>288</dim>
					<dim>56</dim>
					<dim>56</dim>
				</port>
			</output>
		</layer>
		<layer id="279" name="Constant_19993" type="Const" version="opset1">
			<data element_type="i8" shape="288, 72, 3, 3" offset="852940" size="186624" />
			<output>
				<port id="0" precision="I8">
					<dim>288</dim>
					<dim>72</dim>
					<dim>3</dim>
					<dim>3</dim>
				</port>
			</output>
		</layer>
		<layer id="280" name="Convert_19994" type="Convert" version="opset1">
			<data destination_type="f32" />
			<input>
				<port id="0" precision="I8">
					<dim>288</dim>
					<dim>72</dim>
					<dim>3</dim>
					<dim>3</dim>
				</port>
			</input>
			<output>
				<port id="1" precision="FP32">
					<dim>288</dim>
					<dim>72</dim>
					<dim>3</dim>
					<dim>3</dim>
				</port>
			</output>
		</layer>
		<layer id="281" name="Constant_19995" type="Const" version="opset1">
			<data element_type="f32" shape="288, 1, 1, 1" offset="1039564" size="1152" />
			<output>
				<port id="0" precision="FP32">
					<dim>288</dim>
					<dim>1</dim>
					<dim>1</dim>
					<dim>1</dim>
				</port>
			</output>
		</layer>
		<layer id="282" name="/encoder/s2/b2/conv2/conv/pre_ops.0/op/FakeQuantize" type="Multiply" version="opset1">
			<data auto_broadcast="numpy" />
			<input>
				<port id="0" precision="FP32">
					<dim>288</dim>
					<dim>72</dim>
					<dim>3</dim>
					<dim>3</dim>
				</port>
				<port id="1" precision="FP32">
					<dim>288</dim>
					<dim>1</dim>
					<dim>1</dim>
					<dim>1</dim>
				</port>
			</input>
			<output>
				<port id="2" precision="FP32" names="/encoder/s2/b2/conv2/conv/pre_ops.0/op/FakeQuantize_output_0">
					<dim>288</dim>
					<dim>72</dim>
					<dim>3</dim>
					<dim>3</dim>
				</port>
			</output>
		</layer>
		<layer id="283" name="Reshape_16820" type="Const" version="opset1">
			<data element_type="f32" shape="288, 1, 1, 1" offset="1040716" size="1152" />
			<output>
				<port id="0" precision="FP32">
					<dim>288</dim>
					<dim>1</dim>
					<dim>1</dim>
					<dim>1</dim>
				</port>
			</output>
		</layer>
		<layer id="284" name="Multiply_16821" type="Multiply" version="opset1">
			<data auto_broadcast="numpy" />
			<input>
				<port id="0" precision="FP32">
					<dim>288</dim>
					<dim>72</dim>
					<dim>3</dim>
					<dim>3</dim>
				</port>
				<port id="1" precision="FP32">
					<dim>288</dim>
					<dim>1</dim>
					<dim>1</dim>
					<dim>1</dim>
				</port>
			</input>
			<output>
				<port id="2" precision="FP32">
					<dim>288</dim>
					<dim>72</dim>
					<dim>3</dim>
					<dim>3</dim>
				</port>
			</output>
		</layer>
		<layer id="285" name="Constant_956" type="Const" version="opset1">
			<data element_type="i64" shape="1" offset="553232" size="8" />
			<output>
				<port id="0" precision="I64">
					<dim>1</dim>
				</port>
			</output>
		</layer>
		<layer id="286" name="ShapeOf_957" type="ShapeOf" version="opset3">
			<data output_type="i64" />
			<input>
				<port id="0" precision="FP32">
					<dim>288</dim>
					<dim>72</dim>
					<dim>3</dim>
					<dim>3</dim>
				</port>
			</input>
			<output>
				<port id="1" precision="I64">
					<dim>4</dim>
				</port>
			</output>
		</layer>
		<layer id="287" name="Constant_954" type="Const" version="opset1">
			<data element_type="i64" shape="" offset="101368" size="8" />
			<output>
				<port id="0" precision="I64" />
			</output>
		</layer>
		<layer id="288" name="Constant_955" type="Const" version="opset1">
			<data element_type="i64" shape="2" offset="101376" size="16" />
			<output>
				<port id="0" precision="I64">
					<dim>2</dim>
				</port>
			</output>
		</layer>
		<layer id="289" name="VariadicSplit_958" type="VariadicSplit" version="opset1">
			<input>
				<port id="0" precision="I64">
					<dim>4</dim>
				</port>
				<port id="1" precision="I64" />
				<port id="2" precision="I64">
					<dim>2</dim>
				</port>
			</input>
			<output>
				<port id="3" precision="I64">
					<dim>1</dim>
				</port>
				<port id="4" precision="I64">
					<dim>3</dim>
				</port>
			</output>
		</layer>
		<layer id="290" name="Divide_959" type="Divide" version="opset1">
			<data auto_broadcast="numpy" m_pythondiv="true" />
			<input>
				<port id="0" precision="I64">
					<dim>1</dim>
				</port>
				<port id="1" precision="I64">
					<dim>1</dim>
				</port>
			</input>
			<output>
				<port id="2" precision="I64">
					<dim>1</dim>
				</port>
			</output>
		</layer>
		<layer id="291" name="Concat_960" type="Concat" version="opset1">
			<data axis="0" />
			<input>
				<port id="0" precision="I64">
					<dim>1</dim>
				</port>
				<port id="1" precision="I64">
					<dim>1</dim>
				</port>
				<port id="2" precision="I64">
					<dim>3</dim>
				</port>
			</input>
			<output>
				<port id="3" precision="I64">
					<dim>5</dim>
				</port>
			</output>
		</layer>
		<layer id="292" name="Reshape_961" type="Reshape" version="opset1">
			<data special_zero="false" />
			<input>
				<port id="0" precision="FP32">
					<dim>288</dim>
					<dim>72</dim>
					<dim>3</dim>
					<dim>3</dim>
				</port>
				<port id="1" precision="I64">
					<dim>5</dim>
				</port>
			</input>
			<output>
				<port id="2" precision="FP32">
					<dim>4</dim>
					<dim>72</dim>
					<dim>72</dim>
					<dim>3</dim>
					<dim>3</dim>
				</port>
			</output>
		</layer>
		<layer id="293" name="Multiply_16238" type="GroupConvolution" version="opset1">
			<data strides="1, 1" pads_begin="1, 1" pads_end="1, 1" dilations="1, 1" auto_pad="explicit" />
			<input>
				<port id="0" precision="FP32">
					<dim>1</dim>
					<dim>288</dim>
					<dim>56</dim>
					<dim>56</dim>
				</port>
				<port id="1" precision="FP32">
					<dim>4</dim>
					<dim>72</dim>
					<dim>72</dim>
					<dim>3</dim>
					<dim>3</dim>
				</port>
			</input>
			<output>
				<port id="2" precision="FP32" names="/encoder/s2/b2/conv2/conv/Conv_output_0">
					<dim>1</dim>
					<dim>288</dim>
					<dim>56</dim>
					<dim>56</dim>
				</port>
			</output>
		</layer>
		<layer id="294" name="Constant_16243" type="Const" version="opset1">
			<data element_type="f32" shape="1, 288, 1, 1" offset="1041868" size="1152" />
			<output>
				<port id="0" precision="FP32">
					<dim>1</dim>
					<dim>288</dim>
					<dim>1</dim>
					<dim>1</dim>
				</port>
			</output>
		</layer>
		<layer id="295" name="/encoder/s2/b2/conv2/bn/BatchNormalization" type="Add" version="opset1">
			<data auto_broadcast="numpy" />
			<input>
				<port id="0" precision="FP32">
					<dim>1</dim>
					<dim>288</dim>
					<dim>56</dim>
					<dim>56</dim>
				</port>
				<port id="1" precision="FP32">
					<dim>1</dim>
					<dim>288</dim>
					<dim>1</dim>
					<dim>1</dim>
				</port>
			</input>
			<output>
				<port id="2" precision="FP32" names="/encoder/s2/b2/conv2/bn/BatchNormalization_output_0">
					<dim>1</dim>
					<dim>288</dim>
					<dim>56</dim>
					<dim>56</dim>
				</port>
			</output>
		</layer>
		<layer id="296" name="Constant_17913" type="Const" version="opset1">
			<data element_type="f32" shape="1, 1, 1, 1" offset="0" size="4" />
			<output>
				<port id="0" precision="FP32">
					<dim>1</dim>
					<dim>1</dim>
					<dim>1</dim>
					<dim>1</dim>
				</port>
			</output>
		</layer>
		<layer id="297" name="Constant_17914" type="Const" version="opset1">
			<data element_type="f32" shape="1, 1, 1, 1" offset="1043020" size="4" />
			<output>
				<port id="0" precision="FP32">
					<dim>1</dim>
					<dim>1</dim>
					<dim>1</dim>
					<dim>1</dim>
				</port>
			</output>
		</layer>
		<layer id="298" name="Constant_17915" type="Const" version="opset1">
			<data element_type="f32" shape="1, 1, 1, 1" offset="0" size="4" />
			<output>
				<port id="0" precision="FP32">
					<dim>1</dim>
					<dim>1</dim>
					<dim>1</dim>
					<dim>1</dim>
				</port>
			</output>
		</layer>
		<layer id="299" name="Constant_17916" type="Const" version="opset1">
			<data element_type="f32" shape="1, 1, 1, 1" offset="1043020" size="4" />
			<output>
				<port id="0" precision="FP32">
					<dim>1</dim>
					<dim>1</dim>
					<dim>1</dim>
					<dim>1</dim>
				</port>
			</output>
		</layer>
		<layer id="300" name="/encoder/s2/b2/conv2/bn/act/DeepLabV3Plus/RegNetEncoder[encoder]/RegStage[s2]/Bottleneck[b2]/ConvNormAct[conv2]/BatchNormAct2d[bn]/ReLU[act]/relu__0|OUTPUT/FakeQuantize" type="FakeQuantize" version="opset1">
			<data levels="256" auto_broadcast="numpy" />
			<input>
				<port id="0" precision="FP32">
					<dim>1</dim>
					<dim>288</dim>
					<dim>56</dim>
					<dim>56</dim>
				</port>
				<port id="1" precision="FP32">
					<dim>1</dim>
					<dim>1</dim>
					<dim>1</dim>
					<dim>1</dim>
				</port>
				<port id="2" precision="FP32">
					<dim>1</dim>
					<dim>1</dim>
					<dim>1</dim>
					<dim>1</dim>
				</port>
				<port id="3" precision="FP32">
					<dim>1</dim>
					<dim>1</dim>
					<dim>1</dim>
					<dim>1</dim>
				</port>
				<port id="4" precision="FP32">
					<dim>1</dim>
					<dim>1</dim>
					<dim>1</dim>
					<dim>1</dim>
				</port>
			</input>
			<output>
				<port id="5" precision="FP32" names="/encoder/s2/b2/conv2/bn/act/DeepLabV3Plus/RegNetEncoder[encoder]/RegStage[s2]/Bottleneck[b2]/ConvNormAct[conv2]/BatchNormAct2d[bn]/ReLU[act]/relu__0|OUTPUT/FakeQuantize_output_0">
					<dim>1</dim>
					<dim>288</dim>
					<dim>56</dim>
					<dim>56</dim>
				</port>
			</output>
		</layer>
		<layer id="301" name="Constant_1006" type="Const" version="opset1">
			<data element_type="i64" shape="2" offset="101972" size="16" />
			<output>
				<port id="0" precision="I64">
					<dim>2</dim>
				</port>
			</output>
		</layer>
		<layer id="302" name="/encoder/s2/b2/se/ReduceMean" type="ReduceMean" version="opset1">
			<data keep_dims="true" />
			<input>
				<port id="0" precision="FP32">
					<dim>1</dim>
					<dim>288</dim>
					<dim>56</dim>
					<dim>56</dim>
				</port>
				<port id="1" precision="I64">
					<dim>2</dim>
				</port>
			</input>
			<output>
				<port id="2" precision="FP32" names="/encoder/s2/b2/se/ReduceMean_output_0">
					<dim>1</dim>
					<dim>288</dim>
					<dim>1</dim>
					<dim>1</dim>
				</port>
			</output>
		</layer>
		<layer id="303" name="encoder.s2.b2.se.fc1.weight" type="Const" version="opset1">
			<data element_type="f32" shape="72, 288, 1, 1" offset="1043024" size="82944" />
			<output>
				<port id="0" precision="FP32" names="encoder.s2.b2.se.fc1.weight">
					<dim>72</dim>
					<dim>288</dim>
					<dim>1</dim>
					<dim>1</dim>
				</port>
			</output>
		</layer>
		<layer id="304" name="/encoder/s2/b2/se/fc1/Conv/WithoutBiases" type="Convolution" version="opset1">
			<data strides="1, 1" dilations="1, 1" pads_begin="0, 0" pads_end="0, 0" auto_pad="explicit" />
			<input>
				<port id="0" precision="FP32">
					<dim>1</dim>
					<dim>288</dim>
					<dim>1</dim>
					<dim>1</dim>
				</port>
				<port id="1" precision="FP32">
					<dim>72</dim>
					<dim>288</dim>
					<dim>1</dim>
					<dim>1</dim>
				</port>
			</input>
			<output>
				<port id="2" precision="FP32">
					<dim>1</dim>
					<dim>72</dim>
					<dim>1</dim>
					<dim>1</dim>
				</port>
			</output>
		</layer>
		<layer id="305" name="Reshape_1020" type="Const" version="opset1">
			<data element_type="f32" shape="1, 72, 1, 1" offset="1125968" size="288" />
			<output>
				<port id="0" precision="FP32">
					<dim>1</dim>
					<dim>72</dim>
					<dim>1</dim>
					<dim>1</dim>
				</port>
			</output>
		</layer>
		<layer id="306" name="/encoder/s2/b2/se/fc1/Conv" type="Add" version="opset1">
			<data auto_broadcast="numpy" />
			<input>
				<port id="0" precision="FP32">
					<dim>1</dim>
					<dim>72</dim>
					<dim>1</dim>
					<dim>1</dim>
				</port>
				<port id="1" precision="FP32">
					<dim>1</dim>
					<dim>72</dim>
					<dim>1</dim>
					<dim>1</dim>
				</port>
			</input>
			<output>
				<port id="2" precision="FP32" names="/encoder/s2/b2/se/fc1/Conv_output_0">
					<dim>1</dim>
					<dim>72</dim>
					<dim>1</dim>
					<dim>1</dim>
				</port>
			</output>
		</layer>
		<layer id="307" name="/encoder/s2/b2/se/act/Relu" type="ReLU" version="opset1">
			<input>
				<port id="0" precision="FP32">
					<dim>1</dim>
					<dim>72</dim>
					<dim>1</dim>
					<dim>1</dim>
				</port>
			</input>
			<output>
				<port id="1" precision="FP32" names="/encoder/s2/b2/se/act/Relu_output_0">
					<dim>1</dim>
					<dim>72</dim>
					<dim>1</dim>
					<dim>1</dim>
				</port>
			</output>
		</layer>
		<layer id="308" name="encoder.s2.b2.se.fc2.weight" type="Const" version="opset1">
			<data element_type="f32" shape="288, 72, 1, 1" offset="1126256" size="82944" />
			<output>
				<port id="0" precision="FP32" names="encoder.s2.b2.se.fc2.weight">
					<dim>288</dim>
					<dim>72</dim>
					<dim>1</dim>
					<dim>1</dim>
				</port>
			</output>
		</layer>
		<layer id="309" name="/encoder/s2/b2/se/fc2/Conv/WithoutBiases" type="Convolution" version="opset1">
			<data strides="1, 1" dilations="1, 1" pads_begin="0, 0" pads_end="0, 0" auto_pad="explicit" />
			<input>
				<port id="0" precision="FP32">
					<dim>1</dim>
					<dim>72</dim>
					<dim>1</dim>
					<dim>1</dim>
				</port>
				<port id="1" precision="FP32">
					<dim>288</dim>
					<dim>72</dim>
					<dim>1</dim>
					<dim>1</dim>
				</port>
			</input>
			<output>
				<port id="2" precision="FP32">
					<dim>1</dim>
					<dim>288</dim>
					<dim>1</dim>
					<dim>1</dim>
				</port>
			</output>
		</layer>
		<layer id="310" name="Reshape_1037" type="Const" version="opset1">
			<data element_type="f32" shape="1, 288, 1, 1" offset="1209200" size="1152" />
			<output>
				<port id="0" precision="FP32">
					<dim>1</dim>
					<dim>288</dim>
					<dim>1</dim>
					<dim>1</dim>
				</port>
			</output>
		</layer>
		<layer id="311" name="/encoder/s2/b2/se/fc2/Conv" type="Add" version="opset1">
			<data auto_broadcast="numpy" />
			<input>
				<port id="0" precision="FP32">
					<dim>1</dim>
					<dim>288</dim>
					<dim>1</dim>
					<dim>1</dim>
				</port>
				<port id="1" precision="FP32">
					<dim>1</dim>
					<dim>288</dim>
					<dim>1</dim>
					<dim>1</dim>
				</port>
			</input>
			<output>
				<port id="2" precision="FP32" names="/encoder/s2/b2/se/fc2/Conv_output_0">
					<dim>1</dim>
					<dim>288</dim>
					<dim>1</dim>
					<dim>1</dim>
				</port>
			</output>
		</layer>
		<layer id="312" name="/encoder/s2/b2/se/gate/Sigmoid" type="Sigmoid" version="opset1">
			<input>
				<port id="0" precision="FP32">
					<dim>1</dim>
					<dim>288</dim>
					<dim>1</dim>
					<dim>1</dim>
				</port>
			</input>
			<output>
				<port id="1" precision="FP32" names="/encoder/s2/b2/se/gate/Sigmoid_output_0">
					<dim>1</dim>
					<dim>288</dim>
					<dim>1</dim>
					<dim>1</dim>
				</port>
			</output>
		</layer>
		<layer id="313" name="Constant_17917" type="Const" version="opset1">
			<data element_type="f32" shape="1, 1, 1, 1" offset="0" size="4" />
			<output>
				<port id="0" precision="FP32">
					<dim>1</dim>
					<dim>1</dim>
					<dim>1</dim>
					<dim>1</dim>
				</port>
			</output>
		</layer>
		<layer id="314" name="Constant_17918" type="Const" version="opset1">
			<data element_type="f32" shape="1, 1, 1, 1" offset="1210352" size="4" />
			<output>
				<port id="0" precision="FP32">
					<dim>1</dim>
					<dim>1</dim>
					<dim>1</dim>
					<dim>1</dim>
				</port>
			</output>
		</layer>
		<layer id="315" name="Constant_17919" type="Const" version="opset1">
			<data element_type="f32" shape="1, 1, 1, 1" offset="0" size="4" />
			<output>
				<port id="0" precision="FP32">
					<dim>1</dim>
					<dim>1</dim>
					<dim>1</dim>
					<dim>1</dim>
				</port>
			</output>
		</layer>
		<layer id="316" name="Constant_17920" type="Const" version="opset1">
			<data element_type="f32" shape="1, 1, 1, 1" offset="1210352" size="4" />
			<output>
				<port id="0" precision="FP32">
					<dim>1</dim>
					<dim>1</dim>
					<dim>1</dim>
					<dim>1</dim>
				</port>
			</output>
		</layer>
		<layer id="317" name="/encoder/s2/b2/se/gate/DeepLabV3Plus/RegNetEncoder[encoder]/RegStage[s2]/Bottleneck[b2]/SEModule[se]/Sigmoid[gate]/sigmoid_0|OUTPUT/FakeQuantize" type="FakeQuantize" version="opset1">
			<data levels="256" auto_broadcast="numpy" />
			<input>
				<port id="0" precision="FP32">
					<dim>1</dim>
					<dim>288</dim>
					<dim>1</dim>
					<dim>1</dim>
				</port>
				<port id="1" precision="FP32">
					<dim>1</dim>
					<dim>1</dim>
					<dim>1</dim>
					<dim>1</dim>
				</port>
				<port id="2" precision="FP32">
					<dim>1</dim>
					<dim>1</dim>
					<dim>1</dim>
					<dim>1</dim>
				</port>
				<port id="3" precision="FP32">
					<dim>1</dim>
					<dim>1</dim>
					<dim>1</dim>
					<dim>1</dim>
				</port>
				<port id="4" precision="FP32">
					<dim>1</dim>
					<dim>1</dim>
					<dim>1</dim>
					<dim>1</dim>
				</port>
			</input>
			<output>
				<port id="5" precision="FP32" names="/encoder/s2/b2/se/gate/DeepLabV3Plus/RegNetEncoder[encoder]/RegStage[s2]/Bottleneck[b2]/SEModule[se]/Sigmoid[gate]/sigmoid_0|OUTPUT/FakeQuantize_output_0">
					<dim>1</dim>
					<dim>288</dim>
					<dim>1</dim>
					<dim>1</dim>
				</port>
			</output>
		</layer>
		<layer id="318" name="/encoder/s2/b2/se/Mul" type="Multiply" version="opset1">
			<data auto_broadcast="numpy" />
			<input>
				<port id="0" precision="FP32">
					<dim>1</dim>
					<dim>288</dim>
					<dim>56</dim>
					<dim>56</dim>
				</port>
				<port id="1" precision="FP32">
					<dim>1</dim>
					<dim>288</dim>
					<dim>1</dim>
					<dim>1</dim>
				</port>
			</input>
			<output>
				<port id="2" precision="FP32" names="/encoder/s2/b2/se/Mul_output_0">
					<dim>1</dim>
					<dim>288</dim>
					<dim>56</dim>
					<dim>56</dim>
				</port>
			</output>
		</layer>
		<layer id="319" name="Constant_17921" type="Const" version="opset1">
			<data element_type="f32" shape="1, 1, 1, 1" offset="0" size="4" />
			<output>
				<port id="0" precision="FP32">
					<dim>1</dim>
					<dim>1</dim>
					<dim>1</dim>
					<dim>1</dim>
				</port>
			</output>
		</layer>
		<layer id="320" name="Constant_17922" type="Const" version="opset1">
			<data element_type="f32" shape="1, 1, 1, 1" offset="1210356" size="4" />
			<output>
				<port id="0" precision="FP32">
					<dim>1</dim>
					<dim>1</dim>
					<dim>1</dim>
					<dim>1</dim>
				</port>
			</output>
		</layer>
		<layer id="321" name="Constant_17923" type="Const" version="opset1">
			<data element_type="f32" shape="1, 1, 1, 1" offset="0" size="4" />
			<output>
				<port id="0" precision="FP32">
					<dim>1</dim>
					<dim>1</dim>
					<dim>1</dim>
					<dim>1</dim>
				</port>
			</output>
		</layer>
		<layer id="322" name="Constant_17924" type="Const" version="opset1">
			<data element_type="f32" shape="1, 1, 1, 1" offset="1210356" size="4" />
			<output>
				<port id="0" precision="FP32">
					<dim>1</dim>
					<dim>1</dim>
					<dim>1</dim>
					<dim>1</dim>
				</port>
			</output>
		</layer>
		<layer id="323" name="/encoder/s2/b2/se/DeepLabV3Plus/RegNetEncoder[encoder]/RegStage[s2]/Bottleneck[b2]/SEModule[se]/__mul___0|OUTPUT/FakeQuantize" type="FakeQuantize" version="opset1">
			<data levels="256" auto_broadcast="numpy" />
			<input>
				<port id="0" precision="FP32">
					<dim>1</dim>
					<dim>288</dim>
					<dim>56</dim>
					<dim>56</dim>
				</port>
				<port id="1" precision="FP32">
					<dim>1</dim>
					<dim>1</dim>
					<dim>1</dim>
					<dim>1</dim>
				</port>
				<port id="2" precision="FP32">
					<dim>1</dim>
					<dim>1</dim>
					<dim>1</dim>
					<dim>1</dim>
				</port>
				<port id="3" precision="FP32">
					<dim>1</dim>
					<dim>1</dim>
					<dim>1</dim>
					<dim>1</dim>
				</port>
				<port id="4" precision="FP32">
					<dim>1</dim>
					<dim>1</dim>
					<dim>1</dim>
					<dim>1</dim>
				</port>
			</input>
			<output>
				<port id="5" precision="FP32" names="/encoder/s2/b2/se/DeepLabV3Plus/RegNetEncoder[encoder]/RegStage[s2]/Bottleneck[b2]/SEModule[se]/__mul___0|OUTPUT/FakeQuantize_output_0">
					<dim>1</dim>
					<dim>288</dim>
					<dim>56</dim>
					<dim>56</dim>
				</port>
			</output>
		</layer>
		<layer id="324" name="Constant_19997" type="Const" version="opset1">
			<data element_type="i8" shape="288, 288, 1, 1" offset="1210360" size="82944" />
			<output>
				<port id="0" precision="I8">
					<dim>288</dim>
					<dim>288</dim>
					<dim>1</dim>
					<dim>1</dim>
				</port>
			</output>
		</layer>
		<layer id="325" name="Convert_19998" type="Convert" version="opset1">
			<data destination_type="f32" />
			<input>
				<port id="0" precision="I8">
					<dim>288</dim>
					<dim>288</dim>
					<dim>1</dim>
					<dim>1</dim>
				</port>
			</input>
			<output>
				<port id="1" precision="FP32">
					<dim>288</dim>
					<dim>288</dim>
					<dim>1</dim>
					<dim>1</dim>
				</port>
			</output>
		</layer>
		<layer id="326" name="Constant_19999" type="Const" version="opset1">
			<data element_type="f32" shape="288, 1, 1, 1" offset="1293304" size="1152" />
			<output>
				<port id="0" precision="FP32">
					<dim>288</dim>
					<dim>1</dim>
					<dim>1</dim>
					<dim>1</dim>
				</port>
			</output>
		</layer>
		<layer id="327" name="Multiply_16824" type="Multiply" version="opset1">
			<data auto_broadcast="numpy" />
			<input>
				<port id="0" precision="FP32">
					<dim>288</dim>
					<dim>288</dim>
					<dim>1</dim>
					<dim>1</dim>
				</port>
				<port id="1" precision="FP32">
					<dim>288</dim>
					<dim>1</dim>
					<dim>1</dim>
					<dim>1</dim>
				</port>
			</input>
			<output>
				<port id="2" precision="FP32">
					<dim>288</dim>
					<dim>288</dim>
					<dim>1</dim>
					<dim>1</dim>
				</port>
			</output>
		</layer>
		<layer id="328" name="Multiply_16245" type="Convolution" version="opset1">
			<data strides="1, 1" dilations="1, 1" pads_begin="0, 0" pads_end="0, 0" auto_pad="explicit" />
			<input>
				<port id="0" precision="FP32">
					<dim>1</dim>
					<dim>288</dim>
					<dim>56</dim>
					<dim>56</dim>
				</port>
				<port id="1" precision="FP32">
					<dim>288</dim>
					<dim>288</dim>
					<dim>1</dim>
					<dim>1</dim>
				</port>
			</input>
			<output>
				<port id="2" precision="FP32">
					<dim>1</dim>
					<dim>288</dim>
					<dim>56</dim>
					<dim>56</dim>
				</port>
			</output>
		</layer>
		<layer id="329" name="Constant_16250" type="Const" version="opset1">
			<data element_type="f32" shape="1, 288, 1, 1" offset="1294456" size="1152" />
			<output>
				<port id="0" precision="FP32">
					<dim>1</dim>
					<dim>288</dim>
					<dim>1</dim>
					<dim>1</dim>
				</port>
			</output>
		</layer>
		<layer id="330" name="/encoder/s2/b2/conv3/bn/BatchNormalization" type="Add" version="opset1">
			<data auto_broadcast="numpy" />
			<input>
				<port id="0" precision="FP32">
					<dim>1</dim>
					<dim>288</dim>
					<dim>56</dim>
					<dim>56</dim>
				</port>
				<port id="1" precision="FP32">
					<dim>1</dim>
					<dim>288</dim>
					<dim>1</dim>
					<dim>1</dim>
				</port>
			</input>
			<output>
				<port id="2" precision="FP32" names="/encoder/s2/b2/conv3/bn/BatchNormalization_output_0">
					<dim>1</dim>
					<dim>288</dim>
					<dim>56</dim>
					<dim>56</dim>
				</port>
			</output>
		</layer>
		<layer id="331" name="Constant_17925" type="Const" version="opset1">
			<data element_type="f32" shape="1, 1, 1, 1" offset="1295608" size="4" />
			<output>
				<port id="0" precision="FP32">
					<dim>1</dim>
					<dim>1</dim>
					<dim>1</dim>
					<dim>1</dim>
				</port>
			</output>
		</layer>
		<layer id="332" name="Constant_17926" type="Const" version="opset1">
			<data element_type="f32" shape="1, 1, 1, 1" offset="1295612" size="4" />
			<output>
				<port id="0" precision="FP32">
					<dim>1</dim>
					<dim>1</dim>
					<dim>1</dim>
					<dim>1</dim>
				</port>
			</output>
…
		<edge from-layer="1529" from-port="5" to-layer="1530" to-port="1" />
		<edge from-layer="1530" from-port="2" to-layer="1535" to-port="0" />
		<edge from-layer="1531" from-port="0" to-layer="1535" to-port="1" />
		<edge from-layer="1532" from-port="0" to-layer="1535" to-port="2" />
		<edge from-layer="1533" from-port="0" to-layer="1535" to-port="3" />
		<edge from-layer="1534" from-port="0" to-layer="1535" to-port="4" />
		<edge from-layer="1535" from-port="5" to-layer="1540" to-port="0" />
		<edge from-layer="1536" from-port="0" to-layer="1537" to-port="0" />
		<edge from-layer="1537" from-port="1" to-layer="1539" to-port="0" />
		<edge from-layer="1538" from-port="0" to-layer="1539" to-port="1" />
		<edge from-layer="1539" from-port="2" to-layer="1540" to-port="1" />
		<edge from-layer="1540" from-port="2" to-layer="1542" to-port="0" />
		<edge from-layer="1541" from-port="0" to-layer="1542" to-port="1" />
		<edge from-layer="1542" from-port="2" to-layer="1547" to-port="0" />
		<edge from-layer="1543" from-port="0" to-layer="1547" to-port="1" />
		<edge from-layer="1544" from-port="0" to-layer="1547" to-port="2" />
		<edge from-layer="1545" from-port="0" to-layer="1547" to-port="3" />
		<edge from-layer="1546" from-port="0" to-layer="1547" to-port="4" />
		<edge from-layer="1547" from-port="5" to-layer="1548" to-port="0" />
		<edge from-layer="1548" from-port="2" to-layer="1553" to-port="0" />
		<edge from-layer="1549" from-port="0" to-layer="1553" to-port="1" />
		<edge from-layer="1550" from-port="0" to-layer="1553" to-port="2" />
		<edge from-layer="1551" from-port="0" to-layer="1553" to-port="3" />
		<edge from-layer="1552" from-port="0" to-layer="1553" to-port="4" />
		<edge from-layer="1553" from-port="5" to-layer="1558" to-port="0" />
		<edge from-layer="1553" from-port="5" to-layer="1623" to-port="1" />
		<edge from-layer="1554" from-port="0" to-layer="1555" to-port="0" />
		<edge from-layer="1555" from-port="1" to-layer="1557" to-port="0" />
		<edge from-layer="1556" from-port="0" to-layer="1557" to-port="1" />
		<edge from-layer="1557" from-port="2" to-layer="1558" to-port="1" />
		<edge from-layer="1558" from-port="2" to-layer="1560" to-port="0" />
		<edge from-layer="1559" from-port="0" to-layer="1560" to-port="1" />
		<edge from-layer="1560" from-port="2" to-layer="1565" to-port="0" />
		<edge from-layer="1561" from-port="0" to-layer="1565" to-port="1" />
		<edge from-layer="1562" from-port="0" to-layer="1565" to-port="2" />
		<edge from-layer="1563" from-port="0" to-layer="1565" to-port="3" />
		<edge from-layer="1564" from-port="0" to-layer="1565" to-port="4" />
		<edge from-layer="1565" from-port="5" to-layer="1580" to-port="0" />
		<edge from-layer="1566" from-port="0" to-layer="1567" to-port="0" />
		<edge from-layer="1567" from-port="1" to-layer="1569" to-port="0" />
		<edge from-layer="1568" from-port="0" to-layer="1569" to-port="1" />
		<edge from-layer="1569" from-port="2" to-layer="1573" to-port="0" />
		<edge from-layer="1569" from-port="2" to-layer="1571" to-port="0" />
		<edge from-layer="1570" from-port="0" to-layer="1571" to-port="1" />
		<edge from-layer="1571" from-port="2" to-layer="1579" to-port="0" />
		<edge from-layer="1572" from-port="0" to-layer="1577" to-port="1" />
		<edge from-layer="1572" from-port="0" to-layer="1578" to-port="0" />
		<edge from-layer="1573" from-port="1" to-layer="1576" to-port="0" />
		<edge from-layer="1574" from-port="0" to-layer="1576" to-port="1" />
		<edge from-layer="1575" from-port="0" to-layer="1576" to-port="2" />
		<edge from-layer="1576" from-port="4" to-layer="1578" to-port="2" />
		<edge from-layer="1576" from-port="3" to-layer="1577" to-port="0" />
		<edge from-layer="1577" from-port="2" to-layer="1578" to-port="1" />
		<edge from-layer="1578" from-port="3" to-layer="1579" to-port="1" />
		<edge from-layer="1579" from-port="2" to-layer="1580" to-port="1" />
		<edge from-layer="1580" from-port="2" to-layer="1582" to-port="0" />
		<edge from-layer="1581" from-port="0" to-layer="1582" to-port="1" />
		<edge from-layer="1582" from-port="2" to-layer="1587" to-port="0" />
		<edge from-layer="1583" from-port="0" to-layer="1587" to-port="1" />
		<edge from-layer="1584" from-port="0" to-layer="1587" to-port="2" />
		<edge from-layer="1585" from-port="0" to-layer="1587" to-port="3" />
		<edge from-layer="1586" from-port="0" to-layer="1587" to-port="4" />
		<edge from-layer="1587" from-port="5" to-layer="1589" to-port="0" />
		<edge from-layer="1587" from-port="5" to-layer="1605" to-port="0" />
		<edge from-layer="1588" from-port="0" to-layer="1589" to-port="1" />
		<edge from-layer="1589" from-port="2" to-layer="1591" to-port="0" />
		<edge from-layer="1590" from-port="0" to-layer="1591" to-port="1" />
		<edge from-layer="1591" from-port="2" to-layer="1593" to-port="0" />
		<edge from-layer="1592" from-port="0" to-layer="1593" to-port="1" />
		<edge from-layer="1593" from-port="2" to-layer="1594" to-port="0" />
		<edge from-layer="1594" from-port="1" to-layer="1596" to-port="0" />
		<edge from-layer="1595" from-port="0" to-layer="1596" to-port="1" />
		<edge from-layer="1596" from-port="2" to-layer="1598" to-port="0" />
		<edge from-layer="1597" from-port="0" to-layer="1598" to-port="1" />
		<edge from-layer="1598" from-port="2" to-layer="1599" to-port="0" />
		<edge from-layer="1599" from-port="1" to-layer="1604" to-port="0" />
		<edge from-layer="1600" from-port="0" to-layer="1604" to-port="1" />
		<edge from-layer="1601" from-port="0" to-layer="1604" to-port="2" />
		<edge from-layer="1602" from-port="0" to-layer="1604" to-port="3" />
		<edge from-layer="1603" from-port="0" to-layer="1604" to-port="4" />
		<edge from-layer="1604" from-port="5" to-layer="1605" to-port="1" />
		<edge from-layer="1605" from-port="2" to-layer="1610" to-port="0" />
		<edge from-layer="1606" from-port="0" to-layer="1610" to-port="1" />
		<edge from-layer="1607" from-port="0" to-layer="1610" to-port="2" />
		<edge from-layer="1608" from-port="0" to-layer="1610" to-port="3" />
		<edge from-layer="1609" from-port="0" to-layer="1610" to-port="4" />
		<edge from-layer="1610" from-port="5" to-layer="1615" to-port="0" />
		<edge from-layer="1611" from-port="0" to-layer="1612" to-port="0" />
		<edge from-layer="1612" from-port="1" to-layer="1614" to-port="0" />
		<edge from-layer="1613" from-port="0" to-layer="1614" to-port="1" />
		<edge from-layer="1614" from-port="2" to-layer="1615" to-port="1" />
		<edge from-layer="1615" from-port="2" to-layer="1617" to-port="0" />
		<edge from-layer="1616" from-port="0" to-layer="1617" to-port="1" />
		<edge from-layer="1617" from-port="2" to-layer="1622" to-port="0" />
		<edge from-layer="1618" from-port="0" to-layer="1622" to-port="1" />
		<edge from-layer="1619" from-port="0" to-layer="1622" to-port="2" />
		<edge from-layer="1620" from-port="0" to-layer="1622" to-port="3" />
		<edge from-layer="1621" from-port="0" to-layer="1622" to-port="4" />
		<edge from-layer="1622" from-port="5" to-layer="1623" to-port="0" />
		<edge from-layer="1623" from-port="2" to-layer="1628" to-port="0" />
		<edge from-layer="1624" from-port="0" to-layer="1628" to-port="1" />
		<edge from-layer="1625" from-port="0" to-layer="1628" to-port="2" />
		<edge from-layer="1626" from-port="0" to-layer="1628" to-port="3" />
		<edge from-layer="1627" from-port="0" to-layer="1628" to-port="4" />
		<edge from-layer="1628" from-port="5" to-layer="1633" to-port="0" />
		<edge from-layer="1628" from-port="5" to-layer="1698" to-port="1" />
		<edge from-layer="1629" from-port="0" to-layer="1630" to-port="0" />
		<edge from-layer="1630" from-port="1" to-layer="1632" to-port="0" />
		<edge from-layer="1631" from-port="0" to-layer="1632" to-port="1" />
		<edge from-layer="1632" from-port="2" to-layer="1633" to-port="1" />
		<edge from-layer="1633" from-port="2" to-layer="1635" to-port="0" />
		<edge from-layer="1634" from-port="0" to-layer="1635" to-port="1" />
		<edge from-layer="1635" from-port="2" to-layer="1640" to-port="0" />
		<edge from-layer="1636" from-port="0" to-layer="1640" to-port="1" />
		<edge from-layer="1637" from-port="0" to-layer="1640" to-port="2" />
		<edge from-layer="1638" from-port="0" to-layer="1640" to-port="3" />
		<edge from-layer="1639" from-port="0" to-layer="1640" to-port="4" />
		<edge from-layer="1640" from-port="5" to-layer="1655" to-port="0" />
		<edge from-layer="1641" from-port="0" to-layer="1642" to-port="0" />
		<edge from-layer="1642" from-port="1" to-layer="1644" to-port="0" />
		<edge from-layer="1643" from-port="0" to-layer="1644" to-port="1" />
		<edge from-layer="1644" from-port="2" to-layer="1646" to-port="0" />
		<edge from-layer="1644" from-port="2" to-layer="1648" to-port="0" />
		<edge from-layer="1645" from-port="0" to-layer="1646" to-port="1" />
		<edge from-layer="1646" from-port="2" to-layer="1654" to-port="0" />
		<edge from-layer="1647" from-port="0" to-layer="1652" to-port="1" />
		<edge from-layer="1647" from-port="0" to-layer="1653" to-port="0" />
		<edge from-layer="1648" from-port="1" to-layer="1651" to-port="0" />
		<edge from-layer="1649" from-port="0" to-layer="1651" to-port="1" />
		<edge from-layer="1650" from-port="0" to-layer="1651" to-port="2" />
		<edge from-layer="1651" from-port="4" to-layer="1653" to-port="2" />
		<edge from-layer="1651" from-port="3" to-layer="1652" to-port="0" />
		<edge from-layer="1652" from-port="2" to-layer="1653" to-port="1" />
		<edge from-layer="1653" from-port="3" to-layer="1654" to-port="1" />
		<edge from-layer="1654" from-port="2" to-layer="1655" to-port="1" />
		<edge from-layer="1655" from-port="2" to-layer="1657" to-port="0" />
		<edge from-layer="1656" from-port="0" to-layer="1657" to-port="1" />
		<edge from-layer="1657" from-port="2" to-layer="1662" to-port="0" />
		<edge from-layer="1658" from-port="0" to-layer="1662" to-port="1" />
		<edge from-layer="1659" from-port="0" to-layer="1662" to-port="2" />
		<edge from-layer="1660" from-port="0" to-layer="1662" to-port="3" />
		<edge from-layer="1661" from-port="0" to-layer="1662" to-port="4" />
		<edge from-layer="1662" from-port="5" to-layer="1680" to-port="0" />
		<edge from-layer="1662" from-port="5" to-layer="1664" to-port="0" />
		<edge from-layer="1663" from-port="0" to-layer="1664" to-port="1" />
		<edge from-layer="1664" from-port="2" to-layer="1666" to-port="0" />
		<edge from-layer="1665" from-port="0" to-layer="1666" to-port="1" />
		<edge from-layer="1666" from-port="2" to-layer="1668" to-port="0" />
		<edge from-layer="1667" from-port="0" to-layer="1668" to-port="1" />
		<edge from-layer="1668" from-port="2" to-layer="1669" to-port="0" />
		<edge from-layer="1669" from-port="1" to-layer="1671" to-port="0" />
		<edge from-layer="1670" from-port="0" to-layer="1671" to-port="1" />
		<edge from-layer="1671" from-port="2" to-layer="1673" to-port="0" />
		<edge from-layer="1672" from-port="0" to-layer="1673" to-port="1" />
		<edge from-layer="1673" from-port="2" to-layer="1674" to-port="0" />
		<edge from-layer="1674" from-port="1" to-layer="1679" to-port="0" />
		<edge from-layer="1675" from-port="0" to-layer="1679" to-port="1" />
		<edge from-layer="1676" from-port="0" to-layer="1679" to-port="2" />
		<edge from-layer="1677" from-port="0" to-layer="1679" to-port="3" />
		<edge from-layer="1678" from-port="0" to-layer="1679" to-port="4" />
		<edge from-layer="1679" from-port="5" to-layer="1680" to-port="1" />
		<edge from-layer="1680" from-port="2" to-layer="1685" to-port="0" />
		<edge from-layer="1681" from-port="0" to-layer="1685" to-port="1" />
		<edge from-layer="1682" from-port="0" to-layer="1685" to-port="2" />
		<edge from-layer="1683" from-port="0" to-layer="1685" to-port="3" />
		<edge from-layer="1684" from-port="0" to-layer="1685" to-port="4" />
		<edge from-layer="1685" from-port="5" to-layer="1690" to-port="0" />
		<edge from-layer="1686" from-port="0" to-layer="1687" to-port="0" />
		<edge from-layer="1687" from-port="1" to-layer="1689" to-port="0" />
		<edge from-layer="1688" from-port="0" to-layer="1689" to-port="1" />
		<edge from-layer="1689" from-port="2" to-layer="1690" to-port="1" />
		<edge from-layer="1690" from-port="2" to-layer="1692" to-port="0" />
		<edge from-layer="1691" from-port="0" to-layer="1692" to-port="1" />
		<edge from-layer="1692" from-port="2" to-layer="1697" to-port="0" />
		<edge from-layer="1693" from-port="0" to-layer="1697" to-port="1" />
		<edge from-layer="1694" from-port="0" to-layer="1697" to-port="2" />
		<edge from-layer="1695" from-port="0" to-layer="1697" to-port="3" />
		<edge from-layer="1696" from-port="0" to-layer="1697" to-port="4" />
		<edge from-layer="1697" from-port="5" to-layer="1698" to-port="0" />
		<edge from-layer="1698" from-port="2" to-layer="1703" to-port="0" />
		<edge from-layer="1699" from-port="0" to-layer="1703" to-port="1" />
		<edge from-layer="1700" from-port="0" to-layer="1703" to-port="2" />
		<edge from-layer="1701" from-port="0" to-layer="1703" to-port="3" />
		<edge from-layer="1702" from-port="0" to-layer="1703" to-port="4" />
		<edge from-layer="1703" from-port="5" to-layer="1708" to-port="0" />
		<edge from-layer="1703" from-port="5" to-layer="1773" to-port="1" />
		<edge from-layer="1704" from-port="0" to-layer="1705" to-port="0" />
		<edge from-layer="1705" from-port="1" to-layer="1707" to-port="0" />
		<edge from-layer="1706" from-port="0" to-layer="1707" to-port="1" />
		<edge from-layer="1707" from-port="2" to-layer="1708" to-port="1" />
		<edge from-layer="1708" from-port="2" to-layer="1710" to-port="0" />
		<edge from-layer="1709" from-port="0" to-layer="1710" to-port="1" />
		<edge from-layer="1710" from-port="2" to-layer="1715" to-port="0" />
		<edge from-layer="1711" from-port="0" to-layer="1715" to-port="1" />
		<edge from-layer="1712" from-port="0" to-layer="1715" to-port="2" />
		<edge from-layer="1713" from-port="0" to-layer="1715" to-port="3" />
		<edge from-layer="1714" from-port="0" to-layer="1715" to-port="4" />
		<edge from-layer="1715" from-port="5" to-layer="1730" to-port="0" />
		<edge from-layer="1716" from-port="0" to-layer="1717" to-port="0" />
		<edge from-layer="1717" from-port="1" to-layer="1719" to-port="0" />
		<edge from-layer="1718" from-port="0" to-layer="1719" to-port="1" />
		<edge from-layer="1719" from-port="2" to-layer="1721" to-port="0" />
		<edge from-layer="1719" from-port="2" to-layer="1723" to-port="0" />
		<edge from-layer="1720" from-port="0" to-layer="1721" to-port="1" />
		<edge from-layer="1721" from-port="2" to-layer="1729" to-port="0" />
		<edge from-layer="1722" from-port="0" to-layer="1727" to-port="1" />
		<edge from-layer="1722" from-port="0" to-layer="1728" to-port="0" />
		<edge from-layer="1723" from-port="1" to-layer="1726" to-port="0" />
		<edge from-layer="1724" from-port="0" to-layer="1726" to-port="1" />
		<edge from-layer="1725" from-port="0" to-layer="1726" to-port="2" />
		<edge from-layer="1726" from-port="3" to-layer="1727" to-port="0" />
		<edge from-layer="1726" from-port="4" to-layer="1728" to-port="2" />
		<edge from-layer="1727" from-port="2" to-layer="1728" to-port="1" />
		<edge from-layer="1728" from-port="3" to-layer="1729" to-port="1" />
		<edge from-layer="1729" from-port="2" to-layer="1730" to-port="1" />
		<edge from-layer="1730" from-port="2" to-layer="1732" to-port="0" />
		<edge from-layer="1731" from-port="0" to-layer="1732" to-port="1" />
		<edge from-layer="1732" from-port="2" to-layer="1737" to-port="0" />
		<edge from-layer="1733" from-port="0" to-layer="1737" to-port="1" />
		<edge from-layer="1734" from-port="0" to-layer="1737" to-port="2" />
		<edge from-layer="1735" from-port="0" to-layer="1737" to-port="3" />
		<edge from-layer="1736" from-port="0" to-layer="1737" to-port="4" />
		<edge from-layer="1737" from-port="5" to-layer="1739" to-port="0" />
		<edge from-layer="1737" from-port="5" to-layer="1755" to-port="0" />
		<edge from-layer="1738" from-port="0" to-layer="1739" to-port="1" />
		<edge from-layer="1739" from-port="2" to-layer="1741" to-port="0" />
		<edge from-layer="1740" from-port="0" to-layer="1741" to-port="1" />
		<edge from-layer="1741" from-port="2" to-layer="1743" to-port="0" />
		<edge from-layer="1742" from-port="0" to-layer="1743" to-port="1" />
		<edge from-layer="1743" from-port="2" to-layer="1744" to-port="0" />
		<edge from-layer="1744" from-port="1" to-layer="1746" to-port="0" />
		<edge from-layer="1745" from-port="0" to-layer="1746" to-port="1" />
		<edge from-layer="1746" from-port="2" to-layer="1748" to-port="0" />
		<edge from-layer="1747" from-port="0" to-layer="1748" to-port="1" />
		<edge from-layer="1748" from-port="2" to-layer="1749" to-port="0" />
		<edge from-layer="1749" from-port="1" to-layer="1754" to-port="0" />
		<edge from-layer="1750" from-port="0" to-layer="1754" to-port="1" />
		<edge from-layer="1751" from-port="0" to-layer="1754" to-port="2" />
		<edge from-layer="1752" from-port="0" to-layer="1754" to-port="3" />
		<edge from-layer="1753" from-port="0" to-layer="1754" to-port="4" />
		<edge from-layer="1754" from-port="5" to-layer="1755" to-port="1" />
		<edge from-layer="1755" from-port="2" to-layer="1760" to-port="0" />
		<edge from-layer="1756" from-port="0" to-layer="1760" to-port="1" />
		<edge from-layer="1757" from-port="0" to-layer="1760" to-port="2" />
		<edge from-layer="1758" from-port="0" to-layer="1760" to-port="3" />
		<edge from-layer="1759" from-port="0" to-layer="1760" to-port="4" />
		<edge from-layer="1760" from-port="5" to-layer="1765" to-port="0" />
		<edge from-layer="1761" from-port="0" to-layer="1762" to-port="0" />
		<edge from-layer="1762" from-port="1" to-layer="1764" to-port="0" />
		<edge from-layer="1763" from-port="0" to-layer="1764" to-port="1" />
		<edge from-layer="1764" from-port="2" to-layer="1765" to-port="1" />
		<edge from-layer="1765" from-port="2" to-layer="1767" to-port="0" />
		<edge from-layer="1766" from-port="0" to-layer="1767" to-port="1" />
		<edge from-layer="1767" from-port="2" to-layer="1772" to-port="0" />
		<edge from-layer="1768" from-port="0" to-layer="1772" to-port="1" />
		<edge from-layer="1769" from-port="0" to-layer="1772" to-port="2" />
		<edge from-layer="1770" from-port="0" to-layer="1772" to-port="3" />
		<edge from-layer="1771" from-port="0" to-layer="1772" to-port="4" />
		<edge from-layer="1772" from-port="5" to-layer="1773" to-port="0" />
		<edge from-layer="1773" from-port="2" to-layer="1778" to-port="0" />
		<edge from-layer="1774" from-port="0" to-layer="1778" to-port="1" />
		<edge from-layer="1775" from-port="0" to-layer="1778" to-port="2" />
		<edge from-layer="1776" from-port="0" to-layer="1778" to-port="3" />
		<edge from-layer="1777" from-port="0" to-layer="1778" to-port="4" />
		<edge from-layer="1778" from-port="5" to-layer="1783" to-port="0" />
		<edge from-layer="1778" from-port="5" to-layer="1852" to-port="0" />
		<edge from-layer="1779" from-port="0" to-layer="1780" to-port="0" />
		<edge from-layer="1780" from-port="1" to-layer="1782" to-port="0" />
		<edge from-layer="1781" from-port="0" to-layer="1782" to-port="1" />
		<edge from-layer="1782" from-port="2" to-layer="1783" to-port="1" />
		<edge from-layer="1783" from-port="2" to-layer="1785" to-port="0" />
		<edge from-layer="1784" from-port="0" to-layer="1785" to-port="1" />
		<edge from-layer="1785" from-port="2" to-layer="1790" to-port="0" />
		<edge from-layer="1786" from-port="0" to-layer="1790" to-port="1" />
		<edge from-layer="1787" from-port="0" to-layer="1790" to-port="2" />
		<edge from-layer="1788" from-port="0" to-layer="1790" to-port="3" />
		<edge from-layer="1789" from-port="0" to-layer="1790" to-port="4" />
		<edge from-layer="1790" from-port="5" to-layer="1805" to-port="0" />
		<edge from-layer="1791" from-port="0" to-layer="1792" to-port="0" />
		<edge from-layer="1792" from-port="1" to-layer="1794" to-port="0" />
		<edge from-layer="1793" from-port="0" to-layer="1794" to-port="1" />
		<edge from-layer="1794" from-port="2" to-layer="1798" to-port="0" />
		<edge from-layer="1794" from-port="2" to-layer="1796" to-port="0" />
		<edge from-layer="1795" from-port="0" to-layer="1796" to-port="1" />
		<edge from-layer="1796" from-port="2" to-layer="1804" to-port="0" />
		<edge from-layer="1797" from-port="0" to-layer="1802" to-port="1" />
		<edge from-layer="1797" from-port="0" to-layer="1803" to-port="0" />
		<edge from-layer="1798" from-port="1" to-layer="1801" to-port="0" />
		<edge from-layer="1799" from-port="0" to-layer="1801" to-port="1" />
		<edge from-layer="1800" from-port="0" to-layer="1801" to-port="2" />
		<edge from-layer="1801" from-port="3" to-layer="1802" to-port="0" />
		<edge from-layer="1801" from-port="4" to-layer="1803" to-port="2" />
		<edge from-layer="1802" from-port="2" to-layer="1803" to-port="1" />
		<edge from-layer="1803" from-port="3" to-layer="1804" to-port="1" />
		<edge from-layer="1804" from-port="2" to-layer="1805" to-port="1" />
		<edge from-layer="1805" from-port="2" to-layer="1807" to-port="0" />
		<edge from-layer="1806" from-port="0" to-layer="1807" to-port="1" />
		<edge from-layer="1807" from-port="2" to-layer="1812" to-port="0" />
		<edge from-layer="1808" from-port="0" to-layer="1812" to-port="1" />
		<edge from-layer="1809" from-port="0" to-layer="1812" to-port="2" />
		<edge from-layer="1810" from-port="0" to-layer="1812" to-port="3" />
		<edge from-layer="1811" from-port="0" to-layer="1812" to-port="4" />
		<edge from-layer="1812" from-port="5" to-layer="1830" to-port="0" />
		<edge from-layer="1812" from-port="5" to-layer="1814" to-port="0" />
		<edge from-layer="1813" from-port="0" to-layer="1814" to-port="1" />
		<edge from-layer="1814" from-port="2" to-layer="1816" to-port="0" />
		<edge from-layer="1815" from-port="0" to-layer="1816" to-port="1" />
		<edge from-layer="1816" from-port="2" to-layer="1818" to-port="0" />
		<edge from-layer="1817" from-port="0" to-layer="1818" to-port="1" />
		<edge from-layer="1818" from-port="2" to-layer="1819" to-port="0" />
		<edge from-layer="1819" from-port="1" to-layer="1821" to-port="0" />
		<edge from-layer="1820" from-port="0" to-layer="1821" to-port="1" />
		<edge from-layer="1821" from-port="2" to-layer="1823" to-port="0" />
		<edge from-layer="1822" from-port="0" to-layer="1823" to-port="1" />
		<edge from-layer="1823" from-port="2" to-layer="1824" to-port="0" />
		<edge from-layer="1824" from-port="1" to-layer="1829" to-port="0" />
		<edge from-layer="1825" from-port="0" to-layer="1829" to-port="1" />
		<edge from-layer="1826" from-port="0" to-layer="1829" to-port="2" />
		<edge from-layer="1827" from-port="0" to-layer="1829" to-port="3" />
		<edge from-layer="1828" from-port="0" to-layer="1829" to-port="4" />
		<edge from-layer="1829" from-port="5" to-layer="1830" to-port="1" />
		<edge from-layer="1830" from-port="2" to-layer="1835" to-port="0" />
		<edge from-layer="1831" from-port="0" to-layer="1835" to-port="1" />
		<edge from-layer="1832" from-port="0" to-layer="1835" to-port="2" />
		<edge from-layer="1833" from-port="0" to-layer="1835" to-port="3" />
		<edge from-layer="1834" from-port="0" to-layer="1835" to-port="4" />
		<edge from-layer="1835" from-port="5" to-layer="1840" to-port="0" />
		<edge from-layer="1836" from-port="0" to-layer="1837" to-port="0" />
		<edge from-layer="1837" from-port="1" to-layer="1839" to-port="0" />
		<edge from-layer="1838" from-port="0" to-layer="1839" to-port="1" />
		<edge from-layer="1839" from-port="2" to-layer="1840" to-port="1" />
		<edge from-layer="1840" from-port="2" to-layer="1842" to-port="0" />
		<edge from-layer="1841" from-port="0" to-layer="1842" to-port="1" />
		<edge from-layer="1842" from-port="2" to-layer="1847" to-port="0" />
		<edge from-layer="1843" from-port="0" to-layer="1847" to-port="1" />
		<edge from-layer="1844" from-port="0" to-layer="1847" to-port="2" />
		<edge from-layer="1845" from-port="0" to-layer="1847" to-port="3" />
		<edge from-layer="1846" from-port="0" to-layer="1847" to-port="4" />
		<edge from-layer="1847" from-port="5" to-layer="1860" to-port="0" />
		<edge from-layer="1848" from-port="0" to-layer="1849" to-port="0" />
		<edge from-layer="1849" from-port="1" to-layer="1851" to-port="0" />
		<edge from-layer="1850" from-port="0" to-layer="1851" to-port="1" />
		<edge from-layer="1851" from-port="2" to-layer="1852" to-port="1" />
		<edge from-layer="1852" from-port="2" to-layer="1854" to-port="0" />
		<edge from-layer="1853" from-port="0" to-layer="1854" to-port="1" />
		<edge from-layer="1854" from-port="2" to-layer="1859" to-port="0" />
		<edge from-layer="1855" from-port="0" to-layer="1859" to-port="1" />
		<edge from-layer="1856" from-port="0" to-layer="1859" to-port="2" />
		<edge from-layer="1857" from-port="0" to-layer="1859" to-port="3" />
		<edge from-layer="1858" from-port="0" to-layer="1859" to-port="4" />
		<edge from-layer="1859" from-port="5" to-layer="1860" to-port="1" />
		<edge from-layer="1860" from-port="2" to-layer="1865" to-port="0" />
		<edge from-layer="1861" from-port="0" to-layer="1865" to-port="1" />
		<edge from-layer="1862" from-port="0" to-layer="1865" to-port="2" />
		<edge from-layer="1863" from-port="0" to-layer="1865" to-port="3" />
		<edge from-layer="1864" from-port="0" to-layer="1865" to-port="4" />
		<edge from-layer="1865" from-port="5" to-layer="1935" to-port="1" />
		<edge from-layer="1865" from-port="5" to-layer="1870" to-port="0" />
		<edge from-layer="1866" from-port="0" to-layer="1867" to-port="0" />
		<edge from-layer="1867" from-port="1" to-layer="1869" to-port="0" />
		<edge from-layer="1868" from-port="0" to-layer="1869" to-port="1" />
		<edge from-layer="1869" from-port="2" to-layer="1870" to-port="1" />
		<edge from-layer="1870" from-port="2" to-layer="1872" to-port="0" />
		<edge from-layer="1871" from-port="0" to-layer="1872" to-port="1" />
		<edge from-layer="1872" from-port="2" to-layer="1877" to-port="0" />
		<edge from-layer="1873" from-port="0" to-layer="1877" to-port="1" />
		<edge from-layer="1874" from-port="0" to-layer="1877" to-port="2" />
		<edge from-layer="1875" from-port="0" to-layer="1877" to-port="3" />
		<edge from-layer="1876" from-port="0" to-layer="1877" to-port="4" />
		<edge from-layer="1877" from-port="5" to-layer="1892" to-port="0" />
		<edge from-layer="1878" from-port="0" to-layer="1879" to-port="0" />
		<edge from-layer="1879" from-port="1" to-layer="1881" to-port="0" />
		<edge from-layer="1880" from-port="0" to-layer="1881" to-port="1" />
		<edge from-layer="1881" from-port="2" to-layer="1885" to-port="0" />
		<edge from-layer="1881" from-port="2" to-layer="1883" to-port="0" />
		<edge from-layer="1882" from-port="0" to-layer="1883" to-port="1" />
		<edge from-layer="1883" from-port="2" to-layer="1891" to-port="0" />
		<edge from-layer="1884" from-port="0" to-layer="1889" to-port="1" />
		<edge from-layer="1884" from-port="0" to-layer="1890" to-port="0" />
		<edge from-layer="1885" from-port="1" to-layer="1888" to-port="0" />
		<edge from-layer="1886" from-port="0" to-layer="1888" to-port="1" />
		<edge from-layer="1887" from-port="0" to-layer="1888" to-port="2" />
		<edge from-layer="1888" from-port="3" to-layer="1889" to-port="0" />
		<edge from-layer="1888" from-port="4" to-layer="1890" to-port="2" />
		<edge from-layer="1889" from-port="2" to-layer="1890" to-port="1" />
		<edge from-layer="1890" from-port="3" to-layer="1891" to-port="1" />
		<edge from-layer="1891" from-port="2" to-layer="1892" to-port="1" />
		<edge from-layer="1892" from-port="2" to-layer="1894" to-port="0" />
		<edge from-layer="1893" from-port="0" to-layer="1894" to-port="1" />
		<edge from-layer="1894" from-port="2" to-layer="1899" to-port="0" />
		<edge from-layer="1895" from-port="0" to-layer="1899" to-port="1" />
		<edge from-layer="1896" from-port="0" to-layer="1899" to-port="2" />
		<edge from-layer="1897" from-port="0" to-layer="1899" to-port="3" />
		<edge from-layer="1898" from-port="0" to-layer="1899" to-port="4" />
		<edge from-layer="1899" from-port="5" to-layer="1901" to-port="0" />
		<edge from-layer="1899" from-port="5" to-layer="1917" to-port="0" />
		<edge from-layer="1900" from-port="0" to-layer="1901" to-port="1" />
		<edge from-layer="1901" from-port="2" to-layer="1903" to-port="0" />
		<edge from-layer="1902" from-port="0" to-layer="1903" to-port="1" />
		<edge from-layer="1903" from-port="2" to-layer="1905" to-port="0" />
		<edge from-layer="1904" from-port="0" to-layer="1905" to-port="1" />
		<edge from-layer="1905" from-port="2" to-layer="1906" to-port="0" />
		<edge from-layer="1906" from-port="1" to-layer="1908" to-port="0" />
		<edge from-layer="1907" from-port="0" to-layer="1908" to-port="1" />
		<edge from-layer="1908" from-port="2" to-layer="1910" to-port="0" />
		<edge from-layer="1909" from-port="0" to-layer="1910" to-port="1" />
		<edge from-layer="1910" from-port="2" to-layer="1911" to-port="0" />
		<edge from-layer="1911" from-port="1" to-layer="1916" to-port="0" />
		<edge from-layer="1912" from-port="0" to-layer="1916" to-port="1" />
		<edge from-layer="1913" from-port="0" to-layer="1916" to-port="2" />
		<edge from-layer="1914" from-port="0" to-layer="1916" to-port="3" />
		<edge from-layer="1915" from-port="0" to-layer="1916" to-port="4" />
		<edge from-layer="1916" from-port="5" to-layer="1917" to-port="1" />
		<edge from-layer="1917" from-port="2" to-layer="1922" to-port="0" />
		<edge from-layer="1918" from-port="0" to-layer="1922" to-port="1" />
		<edge from-layer="1919" from-port="0" to-layer="1922" to-port="2" />
		<edge from-layer="1920" from-port="0" to-layer="1922" to-port="3" />
		<edge from-layer="1921" from-port="0" to-layer="1922" to-port="4" />
		<edge from-layer="1922" from-port="5" to-layer="1927" to-port="0" />
		<edge from-layer="1923" from-port="0" to-layer="1924" to-port="0" />
		<edge from-layer="1924" from-port="1" to-layer="1926" to-port="0" />
		<edge from-layer="1925" from-port="0" to-layer="1926" to-port="1" />
		<edge from-layer="1926" from-port="2" to-layer="1927" to-port="1" />
		<edge from-layer="1927" from-port="2" to-layer="1929" to-port="0" />
		<edge from-layer="1928" from-port="0" to-layer="1929" to-port="1" />
		<edge from-layer="1929" from-port="2" to-layer="1934" to-port="0" />
		<edge from-layer="1930" from-port="0" to-layer="1934" to-port="1" />
		<edge from-layer="1931" from-port="0" to-layer="1934" to-port="2" />
		<edge from-layer="1932" from-port="0" to-layer="1934" to-port="3" />
		<edge from-layer="1933" from-port="0" to-layer="1934" to-port="4" />
		<edge from-layer="1934" from-port="5" to-layer="1935" to-port="0" />
		<edge from-layer="1935" from-port="2" to-layer="1940" to-port="0" />
		<edge from-layer="1936" from-port="0" to-layer="1940" to-port="1" />
		<edge from-layer="1937" from-port="0" to-layer="1940" to-port="2" />
		<edge from-layer="1938" from-port="0" to-layer="1940" to-port="3" />
		<edge from-layer="1939" from-port="0" to-layer="1940" to-port="4" />
		<edge from-layer="1940" from-port="5" to-layer="1965" to-port="0" />
		<edge from-layer="1940" from-port="5" to-layer="1945" to-port="0" />
		<edge from-layer="1940" from-port="5" to-layer="1995" to-port="0" />
		<edge from-layer="1940" from-port="5" to-layer="2025" to-port="0" />
		<edge from-layer="1940" from-port="5" to-layer="2044" to-port="0" />
		<edge from-layer="1941" from-port="0" to-layer="1942" to-port="0" />
		<edge from-layer="1942" from-port="1" to-layer="1944" to-port="0" />
		<edge from-layer="1943" from-port="0" to-layer="1944" to-port="1" />
		<edge from-layer="1944" from-port="2" to-layer="1945" to-port="1" />
		<edge from-layer="1945" from-port="2" to-layer="1947" to-port="0" />
		<edge from-layer="1946" from-port="0" to-layer="1947" to-port="1" />
		<edge from-layer="1947" from-port="2" to-layer="1952" to-port="0" />
		<edge from-layer="1948" from-port="0" to-layer="1952" to-port="1" />
		<edge from-layer="1949" from-port="0" to-layer="1952" to-port="2" />
		<edge from-layer="1950" from-port="0" to-layer="1952" to-port="3" />
		<edge from-layer="1951" from-port="0" to-layer="1952" to-port="4" />
		<edge from-layer="1952" from-port="5" to-layer="2075" to-port="0" />
		<edge from-layer="1953" from-port="0" to-layer="1954" to-port="0" />
		<edge from-layer="1954" from-port="1" to-layer="1956" to-port="0" />
		<edge from-layer="1955" from-port="0" to-layer="1956" to-port="1" />
		<edge from-layer="1956" from-port="2" to-layer="1958" to-port="0" />
		<edge from-layer="1956" from-port="2" to-layer="1964" to-port="0" />
		<edge from-layer="1957" from-port="0" to-layer="1962" to-port="1" />
		<edge from-layer="1957" from-port="0" to-layer="1963" to-port="0" />
		<edge from-layer="1958" from-port="1" to-layer="1961" to-port="0" />
		<edge from-layer="1959" from-port="0" to-layer="1961" to-port="1" />
		<edge from-layer="1960" from-port="0" to-layer="1961" to-port="2" />
		<edge from-layer="1961" from-port="3" to-layer="1962" to-port="0" />
		<edge from-layer="1961" from-port="4" to-layer="1963" to-port="2" />
		<edge from-layer="1962" from-port="2" to-layer="1963" to-port="1" />
		<edge from-layer="1963" from-port="3" to-layer="1964" to-port="1" />
		<edge from-layer="1964" from-port="2" to-layer="1965" to-port="1" />
		<edge from-layer="1965" from-port="2" to-layer="1970" to-port="0" />
		<edge from-layer="1966" from-port="0" to-layer="1970" to-port="1" />
		<edge from-layer="1967" from-port="0" to-layer="1970" to-port="2" />
		<edge from-layer="1968" from-port="0" to-layer="1970" to-port="3" />
		<edge from-layer="1969" from-port="0" to-layer="1970" to-port="4" />
		<edge from-layer="1970" from-port="5" to-layer="1975" to-port="0" />
		<edge from-layer="1971" from-port="0" to-layer="1972" to-port="0" />
		<edge from-layer="1972" from-port="1" to-layer="1974" to-port="0" />
		<edge from-layer="1973" from-port="0" to-layer="1974" to-port="1" />
		<edge from-layer="1974" from-port="2" to-layer="1975" to-port="1" />
		<edge from-layer="1975" from-port="2" to-layer="1977" to-port="0" />
		<edge from-layer="1976" from-port="0" to-layer="1977" to-port="1" />
		<edge from-layer="1977" from-port="2" to-layer="1982" to-port="0" />
		<edge from-layer="1978" from-port="0" to-layer="1982" to-port="1" />
		<edge from-layer="1979" from-port="0" to-layer="1982" to-port="2" />
		<edge from-layer="1980" from-port="0" to-layer="1982" to-port="3" />
		<edge from-layer="1981" from-port="0" to-layer="1982" to-port="4" />
		<edge from-layer="1982" from-port="5" to-layer="2075" to-port="1" />
		<edge from-layer="1983" from-port="0" to-layer="1984" to-port="0" />
		<edge from-layer="1984" from-port="1" to-layer="1986" to-port="0" />
		<edge from-layer="1985" from-port="0" to-layer="1986" to-port="1" />
		<edge from-layer="1986" from-port="2" to-layer="1988" to-port="0" />
		<edge from-layer="1986" from-port="2" to-layer="1994" to-port="0" />
		<edge from-layer="1987" from-port="0" to-layer="1992" to-port="1" />
		<edge from-layer="1987" from-port="0" to-layer="1993" to-port="0" />
		<edge from-layer="1988" from-port="1" to-layer="1991" to-port="0" />
		<edge from-layer="1989" from-port="0" to-layer="1991" to-port="1" />
		<edge from-layer="1990" from-port="0" to-layer="1991" to-port="2" />
		<edge from-layer="1991" from-port="3" to-layer="1992" to-port="0" />
		<edge from-layer="1991" from-port="4" to-layer="1993" to-port="2" />
		<edge from-layer="1992" from-port="2" to-layer="1993" to-port="1" />
		<edge from-layer="1993" from-port="3" to-layer="1994" to-port="1" />
		<edge from-layer="1994" from-port="2" to-layer="1995" to-port="1" />
		<edge from-layer="1995" from-port="2" to-layer="2000" to-port="0" />
		<edge from-layer="1996" from-port="0" to-layer="2000" to-port="1" />
		<edge from-layer="1997" from-port="0" to-layer="2000" to-port="2" />
		<edge from-layer="1998" from-port="0" to-layer="2000" to-port="3" />
		<edge from-layer="1999" from-port="0" to-layer="2000" to-port="4" />
		<edge from-layer="2000" from-port="5" to-layer="2005" to-port="0" />
		<edge from-layer="2001" from-port="0" to-layer="2002" to-port="0" />
		<edge from-layer="2002" from-port="1" to-layer="2004" to-port="0" />
		<edge from-layer="2003" from-port="0" to-layer="2004" to-port="1" />
		<edge from-layer="2004" from-port="2" to-layer="2005" to-port="1" />
		<edge from-layer="2005" from-port="2" to-layer="2007" to-port="0" />
		<edge from-layer="2006" from-port="0" to-layer="2007" to-port="1" />
		<edge from-layer="2007" from-port="2" to-layer="2012" to-port="0" />
		<edge from-layer="2008" from-port="0" to-layer="2012" to-port="1" />
		<edge from-layer="2009" from-port="0" to-layer="2012" to-port="2" />
		<edge from-layer="2010" from-port="0" to-layer="2012" to-port="3" />
		<edge from-layer="2011" from-port="0" to-layer="2012" to-port="4" />
		<edge from-layer="2012" from-port="5" to-layer="2075" to-port="2" />
		<edge from-layer="2013" from-port="0" to-layer="2014" to-port="0" />
		<edge from-layer="2014" from-port="1" to-layer="2016" to-port="0" />
		<edge from-layer="2015" from-port="0" to-layer="2016" to-port="1" />
		<edge from-layer="2016" from-port="2" to-layer="2024" to-port="0" />
		<edge from-layer="2016" from-port="2" to-layer="2018" to-port="0" />
		<edge from-layer="2017" from-port="0" to-layer="2022" to-port="1" />
		<edge from-layer="2017" from-port="0" to-layer="2023" to-port="0" />
		<edge from-layer="2018" from-port="1" to-layer="2021" to-port="0" />
		<edge from-layer="2019" from-port="0" to-layer="2021" to-port="1" />
		<edge from-layer="2020" from-port="0" to-layer="2021" to-port="2" />
		<edge from-layer="2021" from-port="4" to-layer="2023" to-port="2" />
		<edge from-layer="2021" from-port="3" to-layer="2022" to-port="0" />
		<edge from-layer="2022" from-port="2" to-layer="2023" to-port="1" />
		<edge from-layer="2023" from-port="3" to-layer="2024" to-port="1" />
		<edge from-layer="2024" from-port="2" to-layer="2025" to-port="1" />
		<edge from-layer="2025" from-port="2" to-layer="2030" to-port="0" />
		<edge from-layer="2026" from-port="0" to-layer="2030" to-port="1" />
		<edge from-layer="2027" from-port="0" to-layer="2030" to-port="2" />
		<edge from-layer="2028" from-port="0" to-layer="2030" to-port="3" />
		<edge from-layer="2029" from-port="0" to-layer="2030" to-port="4" />
		<edge from-layer="2030" from-port="5" to-layer="2035" to-port="0" />
		<edge from-layer="2031" from-port="0" to-layer="2032" to-port="0" />
		<edge from-layer="2032" from-port="1" to-layer="2034" to-port="0" />
		<edge from-layer="2033" from-port="0" to-layer="2034" to-port="1" />
		<edge from-layer="2034" from-port="2" to-layer="2035" to-port="1" />
		<edge from-layer="2035" from-port="2" to-layer="2037" to-port="0" />
		<edge from-layer="2036" from-port="0" to-layer="2037" to-port="1" />
		<edge from-layer="2037" from-port="2" to-layer="2042" to-port="0" />
		<edge from-layer="2038" from-port="0" to-layer="2042" to-port="1" />
		<edge from-layer="2039" from-port="0" to-layer="2042" to-port="2" />
		<edge from-layer="2040" from-port="0" to-layer="2042" to-port="3" />
		<edge from-layer="2041" from-port="0" to-layer="2042" to-port="4" />
		<edge from-layer="2042" from-port="5" to-layer="2075" to-port="3" />
		<edge from-layer="2043" from-port="0" to-layer="2044" to-port="1" />
		<edge from-layer="2044" from-port="2" to-layer="2049" to-port="0" />
		<edge from-layer="2045" from-port="0" to-layer="2049" to-port="1" />
		<edge from-layer="2046" from-port="0" to-layer="2049" to-port="2" />
		<edge from-layer="2047" from-port="0" to-layer="2049" to-port="3" />
		<edge from-layer="2048" from-port="0" to-layer="2049" to-port="4" />
		<edge from-layer="2049" from-port="5" to-layer="2054" to-port="0" />
		<edge from-layer="2050" from-port="0" to-layer="2051" to-port="0" />
		<edge from-layer="2051" from-port="1" to-layer="2053" to-port="0" />
		<edge from-layer="2052" from-port="0" to-layer="2053" to-port="1" />
		<edge from-layer="2053" from-port="2" to-layer="2054" to-port="1" />
		<edge from-layer="2054" from-port="2" to-layer="2056" to-port="0" />
		<edge from-layer="2055" from-port="0" to-layer="2056" to-port="1" />
		<edge from-layer="2056" from-port="2" to-layer="2061" to-port="0" />
		<edge from-layer="2057" from-port="0" to-layer="2061" to-port="1" />
		<edge from-layer="2058" from-port="0" to-layer="2061" to-port="2" />
		<edge from-layer="2059" from-port="0" to-layer="2061" to-port="3" />
		<edge from-layer="2060" from-port="0" to-layer="2061" to-port="4" />
		<edge from-layer="2061" from-port="5" to-layer="2069" to-port="0" />
		<edge from-layer="2061" from-port="5" to-layer="2062" to-port="0" />
		<edge from-layer="2062" from-port="1" to-layer="2066" to-port="0" />
		<edge from-layer="2063" from-port="0" to-layer="2066" to-port="1" />
		<edge from-layer="2064" from-port="0" to-layer="2066" to-port="2" />
		<edge from-layer="2065" from-port="0" to-layer="2066" to-port="3" />
		<edge from-layer="2066" from-port="4" to-layer="2068" to-port="0" />
		<edge from-layer="2067" from-port="0" to-layer="2068" to-port="1" />
		<edge from-layer="2068" from-port="2" to-layer="2069" to-port="1" />
		<edge from-layer="2069" from-port="2" to-layer="2074" to-port="0" />
		<edge from-layer="2070" from-port="0" to-layer="2074" to-port="1" />
		<edge from-layer="2071" from-port="0" to-layer="2074" to-port="2" />
		<edge from-layer="2072" from-port="0" to-layer="2074" to-port="3" />
		<edge from-layer="2073" from-port="0" to-layer="2074" to-port="4" />
		<edge from-layer="2074" from-port="5" to-layer="2075" to-port="4" />
		<edge from-layer="2075" from-port="5" to-layer="2080" to-port="0" />
		<edge from-layer="2076" from-port="0" to-layer="2077" to-port="0" />
		<edge from-layer="2077" from-port="1" to-layer="2079" to-port="0" />
		<edge from-layer="2078" from-port="0" to-layer="2079" to-port="1" />
		<edge from-layer="2079" from-port="2" to-layer="2080" to-port="1" />
		<edge from-layer="2080" from-port="2" to-layer="2082" to-port="0" />
		<edge from-layer="2081" from-port="0" to-layer="2082" to-port="1" />
		<edge from-layer="2082" from-port="2" to-layer="2085" to-port="0" />
		<edge from-layer="2083" from-port="0" to-layer="2119" to-port="3" />
		<edge from-layer="2083" from-port="0" to-layer="2119" to-port="1" />
		<edge from-layer="2083" from-port="0" to-layer="2085" to-port="3" />
		<edge from-layer="2083" from-port="0" to-layer="2085" to-port="1" />
		<edge from-layer="2084" from-port="0" to-layer="2085" to-port="2" />
		<edge from-layer="2084" from-port="0" to-layer="2085" to-port="4" />
		<edge from-layer="2085" from-port="5" to-layer="2098" to-port="0" />
		<edge from-layer="2086" from-port="0" to-layer="2087" to-port="0" />
		<edge from-layer="2087" from-port="1" to-layer="2089" to-port="0" />
		<edge from-layer="2088" from-port="0" to-layer="2089" to-port="1" />
		<edge from-layer="2089" from-port="2" to-layer="2097" to-port="0" />
		<edge from-layer="2089" from-port="2" to-layer="2091" to-port="0" />
		<edge from-layer="2090" from-port="0" to-layer="2095" to-port="1" />
		<edge from-layer="2090" from-port="0" to-layer="2096" to-port="0" />
		<edge from-layer="2091" from-port="1" to-layer="2094" to-port="0" />
		<edge from-layer="2092" from-port="0" to-layer="2094" to-port="1" />
		<edge from-layer="2093" from-port="0" to-layer="2094" to-port="2" />
		<edge from-layer="2094" from-port="3" to-layer="2095" to-port="0" />
		<edge from-layer="2094" from-port="4" to-layer="2096" to-port="2" />
		<edge from-layer="2095" from-port="2" to-layer="2096" to-port="1" />
		<edge from-layer="2096" from-port="3" to-layer="2097" to-port="1" />
		<edge from-layer="2097" from-port="2" to-layer="2098" to-port="1" />
		<edge from-layer="2098" from-port="2" to-layer="2103" to-port="0" />
		<edge from-layer="2099" from-port="0" to-layer="2103" to-port="1" />
		<edge from-layer="2100" from-port="0" to-layer="2103" to-port="2" />
		<edge from-layer="2101" from-port="0" to-layer="2103" to-port="3" />
		<edge from-layer="2102" from-port="0" to-layer="2103" to-port="4" />
		<edge from-layer="2103" from-port="5" to-layer="2108" to-port="0" />
		<edge from-layer="2104" from-port="0" to-layer="2105" to-port="0" />
		<edge from-layer="2105" from-port="1" to-layer="2107" to-port="0" />
		<edge from-layer="2106" from-port="0" to-layer="2107" to-port="1" />
		<edge from-layer="2107" from-port="2" to-layer="2108" to-port="1" />
		<edge from-layer="2108" from-port="2" to-layer="2110" to-port="0" />
		<edge from-layer="2109" from-port="0" to-layer="2110" to-port="1" />
		<edge from-layer="2110" from-port="2" to-layer="2115" to-port="0" />
		<edge from-layer="2111" from-port="0" to-layer="2115" to-port="1" />
		<edge from-layer="2112" from-port="0" to-layer="2115" to-port="2" />
		<edge from-layer="2113" from-port="0" to-layer="2115" to-port="3" />
		<edge from-layer="2114" from-port="0" to-layer="2115" to-port="4" />
		<edge from-layer="2115" from-port="5" to-layer="2117" to-port="0" />
		<edge from-layer="2116" from-port="0" to-layer="2117" to-port="1" />
		<edge from-layer="2117" from-port="2" to-layer="2119" to-port="0" />
		<edge from-layer="2118" from-port="0" to-layer="2119" to-port="2" />
		<edge from-layer="2118" from-port="0" to-layer="2119" to-port="4" />
		<edge from-layer="2119" from-port="5" to-layer="2130" to-port="0" />
		<edge from-layer="2120" from-port="0" to-layer="2121" to-port="0" />
		<edge from-layer="2121" from-port="1" to-layer="2123" to-port="0" />
		<edge from-layer="2122" from-port="0" to-layer="2123" to-port="1" />
		<edge from-layer="2123" from-port="2" to-layer="2124" to-port="1" />
		<edge from-layer="2124" from-port="2" to-layer="2126" to-port="0" />
		<edge from-layer="2125" from-port="0" to-layer="2126" to-port="1" />
		<edge from-layer="2126" from-port="2" to-layer="2129" to-port="0" />
		<edge from-layer="2127" from-port="0" to-layer="2129" to-port="1" />
		<edge from-layer="2127" from-port="0" to-layer="2129" to-port="3" />
		<edge from-layer="2128" from-port="0" to-layer="2129" to-port="4" />
		<edge from-layer="2128" from-port="0" to-layer="2129" to-port="2" />
		<edge from-layer="2129" from-port="5" to-layer="2130" to-port="1" />
		<edge from-layer="2130" from-port="2" to-layer="2143" to-port="0" />
		<edge from-layer="2131" from-port="0" to-layer="2132" to-port="0" />
		<edge from-layer="2132" from-port="1" to-layer="2134" to-port="0" />
		<edge from-layer="2133" from-port="0" to-layer="2134" to-port="1" />
		<edge from-layer="2134" from-port="2" to-layer="2136" to-port="0" />
		<edge from-layer="2134" from-port="2" to-layer="2142" to-port="0" />
		<edge from-layer="2135" from-port="0" to-layer="2140" to-port="1" />
		<edge from-layer="2135" from-port="0" to-layer="2141" to-port="0" />
		<edge from-layer="2136" from-port="1" to-layer="2139" to-port="0" />
		<edge from-layer="2137" from-port="0" to-layer="2139" to-port="1" />
		<edge from-layer="2138" from-port="0" to-layer="2139" to-port="2" />
		<edge from-layer="2139" from-port="3" to-layer="2140" to-port="0" />
		<edge from-layer="2139" from-port="4" to-layer="2141" to-port="2" />
		<edge from-layer="2140" from-port="2" to-layer="2141" to-port="1" />
		<edge from-layer="2141" from-port="3" to-layer="2142" to-port="1" />
		<edge from-layer="2142" from-port="2" to-layer="2143" to-port="1" />
		<edge from-layer="2143" from-port="2" to-layer="2148" to-port="0" />
		<edge from-layer="2144" from-port="0" to-layer="2148" to-port="1" />
		<edge from-layer="2145" from-port="0" to-layer="2148" to-port="2" />
		<edge from-layer="2146" from-port="0" to-layer="2148" to-port="3" />
		<edge from-layer="2147" from-port="0" to-layer="2148" to-port="4" />
		<edge from-layer="2148" from-port="5" to-layer="2153" to-port="0" />
		<edge from-layer="2149" from-port="0" to-layer="2150" to-port="0" />
		<edge from-layer="2150" from-port="1" to-layer="2152" to-port="0" />
		<edge from-layer="2151" from-port="0" to-layer="2152" to-port="1" />
		<edge from-layer="2152" from-port="2" to-layer="2153" to-port="1" />
		<edge from-layer="2153" from-port="2" to-layer="2155" to-port="0" />
		<edge from-layer="2154" from-port="0" to-layer="2155" to-port="1" />
		<edge from-layer="2155" from-port="2" to-layer="2160" to-port="0" />
		<edge from-layer="2156" from-port="0" to-layer="2160" to-port="1" />
		<edge from-layer="2157" from-port="0" to-layer="2160" to-port="2" />
		<edge from-layer="2158" from-port="0" to-layer="2160" to-port="3" />
		<edge from-layer="2159" from-port="0" to-layer="2160" to-port="4" />
		<edge from-layer="2160" from-port="5" to-layer="2165" to-port="0" />
		<edge from-layer="2161" from-port="0" to-layer="2162" to-port="0" />
		<edge from-layer="2162" from-port="1" to-layer="2164" to-port="0" />
		<edge from-layer="2163" from-port="0" to-layer="2164" to-port="1" />
		<edge from-layer="2164" from-port="2" to-layer="2165" to-port="1" />
		<edge from-layer="2165" from-port="2" to-layer="2167" to-port="0" />
		<edge from-layer="2166" from-port="0" to-layer="2167" to-port="1" />
		<edge from-layer="2167" from-port="2" to-layer="2172" to-port="0" />
		<edge from-layer="2168" from-port="0" to-layer="2172" to-port="1" />
		<edge from-layer="2169" from-port="0" to-layer="2172" to-port="2" />
		<edge from-layer="2170" from-port="0" to-layer="2172" to-port="3" />
		<edge from-layer="2171" from-port="0" to-layer="2172" to-port="4" />
		<edge from-layer="2172" from-port="5" to-layer="2174" to-port="0" />
		<edge from-layer="2173" from-port="0" to-layer="2174" to-port="1" />
		<edge from-layer="2174" from-port="2" to-layer="2175" to-port="0" />
		<edge from-layer="2175" from-port="1" to-layer="2176" to-port="0" />
	</edges>
	<rt_info>
		<MO_version value="2023.3.0-13775-ceeafaf64f3-releases/2023/3" />
		<Runtime_version value="2023.3.0-13775-ceeafaf64f3-releases/2023/3" />
		<conversion_parameters>
			<input_model value="DIR/DeepLabV3Plus_timm-regnety_064_int8.onnx" />
			<is_python_api_used value="True" />
		</conversion_parameters>
		<legacy_frontend value="False" />
	</rt_info>
</net>
